<?xml version="1.0"?>
<net name="text-recognition-0012" version="11">
	<layers>
		<layer id="0" name="Placeholder" type="Parameter" version="opset1">
			<data shape="1,32,120,1" element_type="f32" />
			<rt_info>
				<attribute name="old_api_map_element_type" version="0" value="f16" />
				<attribute name="old_api_map_order" version="0" value="0, 2, 3, 1" />
			</rt_info>
			<output>
				<port id="0" precision="FP32" names="Placeholder,Placeholder:0">
					<dim>1</dim>
					<dim>32</dim>
					<dim>120</dim>
					<dim>1</dim>
					<rt_info>
						<attribute name="layout" version="0" layout="[N,H,W,C]" />
					</rt_info>
				</port>
			</output>
		</layer>
		<layer id="1" name="Placeholder/Transpose([0 3 1 2])/value60487204" type="Const" version="opset1">
			<data element_type="i64" shape="4" offset="0" size="32" />
			<output>
				<port id="0" precision="I64">
					<dim>4</dim>
				</port>
			</output>
		</layer>
		<layer id="2" name="Placeholder/Transpose([0 3 1 2])" type="Transpose" version="opset1">
			<input>
				<port id="0" precision="FP32">
					<dim>1</dim>
					<dim>32</dim>
					<dim>120</dim>
					<dim>1</dim>
				</port>
				<port id="1" precision="I64">
					<dim>4</dim>
				</port>
			</input>
			<output>
				<port id="2" precision="FP32">
					<dim>1</dim>
					<dim>1</dim>
					<dim>32</dim>
					<dim>120</dim>
				</port>
			</output>
		</layer>
		<layer id="3" name="data_mul_5331_compressed" type="Const" version="opset1">
			<data element_type="f16" shape="1, 1, 1, 1" offset="32" size="2" />
			<output>
				<port id="0" precision="FP16">
					<dim>1</dim>
					<dim>1</dim>
					<dim>1</dim>
					<dim>1</dim>
				</port>
			</output>
		</layer>
		<layer id="4" name="data_mul_5331" type="Convert" version="opset1">
			<data destination_type="f32" />
			<rt_info>
				<attribute name="decompression" version="0" />
			</rt_info>
			<input>
				<port id="0" precision="FP16">
					<dim>1</dim>
					<dim>1</dim>
					<dim>1</dim>
					<dim>1</dim>
				</port>
			</input>
			<output>
				<port id="1" precision="FP32">
					<dim>1</dim>
					<dim>1</dim>
					<dim>1</dim>
					<dim>1</dim>
				</port>
			</output>
		</layer>
		<layer id="5" name="shadow/BatchNorm/FusedBatchNorm/mean/Fused_Mul_" type="Multiply" version="opset1">
			<data auto_broadcast="numpy" />
			<input>
				<port id="0" precision="FP32">
					<dim>1</dim>
					<dim>1</dim>
					<dim>32</dim>
					<dim>120</dim>
				</port>
				<port id="1" precision="FP32">
					<dim>1</dim>
					<dim>1</dim>
					<dim>1</dim>
					<dim>1</dim>
				</port>
			</input>
			<output>
				<port id="2" precision="FP32">
					<dim>1</dim>
					<dim>1</dim>
					<dim>32</dim>
					<dim>120</dim>
				</port>
			</output>
		</layer>
		<layer id="6" name="data_add_5333_compressed" type="Const" version="opset1">
			<data element_type="f16" shape="1, 1, 1, 1" offset="34" size="2" />
			<output>
				<port id="0" precision="FP16">
					<dim>1</dim>
					<dim>1</dim>
					<dim>1</dim>
					<dim>1</dim>
				</port>
			</output>
		</layer>
		<layer id="7" name="data_add_5333" type="Convert" version="opset1">
			<data destination_type="f32" />
			<rt_info>
				<attribute name="decompression" version="0" />
			</rt_info>
			<input>
				<port id="0" precision="FP16">
					<dim>1</dim>
					<dim>1</dim>
					<dim>1</dim>
					<dim>1</dim>
				</port>
			</input>
			<output>
				<port id="1" precision="FP32">
					<dim>1</dim>
					<dim>1</dim>
					<dim>1</dim>
					<dim>1</dim>
				</port>
			</output>
		</layer>
		<layer id="8" name="shadow/BatchNorm/FusedBatchNorm/variance/Fused_Add_" type="Add" version="opset1">
			<data auto_broadcast="numpy" />
			<input>
				<port id="0" precision="FP32">
					<dim>1</dim>
					<dim>1</dim>
					<dim>32</dim>
					<dim>120</dim>
				</port>
				<port id="1" precision="FP32">
					<dim>1</dim>
					<dim>1</dim>
					<dim>1</dim>
					<dim>1</dim>
				</port>
			</input>
			<output>
				<port id="2" precision="FP32" names="shadow/BatchNorm/FusedBatchNorm:0,shadow/Dropout/Identity:0">
					<dim>1</dim>
					<dim>1</dim>
					<dim>32</dim>
					<dim>120</dim>
				</port>
			</output>
		</layer>
		<layer id="9" name="shadow/BatchNorm_1/FusedBatchNorm/mean/Fused_Mul__copy_compressed" type="Const" version="opset1">
			<data element_type="f16" shape="64, 1, 3, 3" offset="36" size="1152" />
			<output>
				<port id="0" precision="FP16">
					<dim>64</dim>
					<dim>1</dim>
					<dim>3</dim>
					<dim>3</dim>
				</port>
			</output>
		</layer>
		<layer id="10" name="shadow/BatchNorm_1/FusedBatchNorm/mean/Fused_Mul__copy" type="Convert" version="opset1">
			<data destination_type="f32" />
			<rt_info>
				<attribute name="decompression" version="0" />
			</rt_info>
			<input>
				<port id="0" precision="FP16">
					<dim>64</dim>
					<dim>1</dim>
					<dim>3</dim>
					<dim>3</dim>
				</port>
			</input>
			<output>
				<port id="1" precision="FP32" names="shadow/Conv/weights/read:0">
					<dim>64</dim>
					<dim>1</dim>
					<dim>3</dim>
					<dim>3</dim>
				</port>
			</output>
		</layer>
		<layer id="11" name="shadow/Conv/Conv2D" type="Convolution" version="opset1">
			<data strides="1, 1" dilations="1, 1" pads_begin="0, 0" pads_end="0, 0" auto_pad="same_upper" />
			<input>
				<port id="0" precision="FP32">
					<dim>1</dim>
					<dim>1</dim>
					<dim>32</dim>
					<dim>120</dim>
				</port>
				<port id="1" precision="FP32">
					<dim>64</dim>
					<dim>1</dim>
					<dim>3</dim>
					<dim>3</dim>
				</port>
			</input>
			<output>
				<port id="2" precision="FP32">
					<dim>1</dim>
					<dim>64</dim>
					<dim>32</dim>
					<dim>120</dim>
				</port>
			</output>
		</layer>
		<layer id="12" name="data_add_53365341_compressed" type="Const" version="opset1">
			<data element_type="f16" shape="1, 64, 1, 1" offset="1188" size="128" />
			<output>
				<port id="0" precision="FP16">
					<dim>1</dim>
					<dim>64</dim>
					<dim>1</dim>
					<dim>1</dim>
				</port>
			</output>
		</layer>
		<layer id="13" name="data_add_53365341" type="Convert" version="opset1">
			<data destination_type="f32" />
			<rt_info>
				<attribute name="decompression" version="0" />
			</rt_info>
			<input>
				<port id="0" precision="FP16">
					<dim>1</dim>
					<dim>64</dim>
					<dim>1</dim>
					<dim>1</dim>
				</port>
			</input>
			<output>
				<port id="1" precision="FP32">
					<dim>1</dim>
					<dim>64</dim>
					<dim>1</dim>
					<dim>1</dim>
				</port>
			</output>
		</layer>
		<layer id="14" name="shadow/BatchNorm_1/FusedBatchNorm/variance/Fused_Add_" type="Add" version="opset1">
			<data auto_broadcast="numpy" />
			<input>
				<port id="0" precision="FP32">
					<dim>1</dim>
					<dim>64</dim>
					<dim>32</dim>
					<dim>120</dim>
				</port>
				<port id="1" precision="FP32">
					<dim>1</dim>
					<dim>64</dim>
					<dim>1</dim>
					<dim>1</dim>
				</port>
			</input>
			<output>
				<port id="2" precision="FP32" names="shadow/BatchNorm_1/FusedBatchNorm:0">
					<dim>1</dim>
					<dim>64</dim>
					<dim>32</dim>
					<dim>120</dim>
				</port>
			</output>
		</layer>
		<layer id="15" name="shadow/BatchNorm_1/Relu" type="ReLU" version="opset1">
			<input>
				<port id="0" precision="FP32">
					<dim>1</dim>
					<dim>64</dim>
					<dim>32</dim>
					<dim>120</dim>
				</port>
			</input>
			<output>
				<port id="1" precision="FP32" names="shadow/BatchNorm_1/Relu:0">
					<dim>1</dim>
					<dim>64</dim>
					<dim>32</dim>
					<dim>120</dim>
				</port>
			</output>
		</layer>
		<layer id="16" name="shadow/MaxPool2D/MaxPool" type="MaxPool" version="opset8">
			<data strides="2, 2" dilations="1, 1" pads_begin="0, 0" pads_end="0, 0" kernel="2, 2" rounding_type="floor" auto_pad="valid" index_element_type="i64" axis="0" />
			<input>
				<port id="0" precision="FP32">
					<dim>1</dim>
					<dim>64</dim>
					<dim>32</dim>
					<dim>120</dim>
				</port>
			</input>
			<output>
				<port id="1" precision="FP32" names="shadow/Dropout_1/Identity:0,shadow/MaxPool2D/MaxPool:0">
					<dim>1</dim>
					<dim>64</dim>
					<dim>16</dim>
					<dim>60</dim>
				</port>
				<port id="2" precision="I64">
					<dim>1</dim>
					<dim>64</dim>
					<dim>16</dim>
					<dim>60</dim>
				</port>
			</output>
		</layer>
		<layer id="17" name="shadow/BatchNorm_2/FusedBatchNorm/mean/Fused_Mul__copy_compressed" type="Const" version="opset1">
			<data element_type="f16" shape="128, 64, 3, 3" offset="1316" size="147456" />
			<output>
				<port id="0" precision="FP16">
					<dim>128</dim>
					<dim>64</dim>
					<dim>3</dim>
					<dim>3</dim>
				</port>
			</output>
		</layer>
		<layer id="18" name="shadow/BatchNorm_2/FusedBatchNorm/mean/Fused_Mul__copy" type="Convert" version="opset1">
			<data destination_type="f32" />
			<rt_info>
				<attribute name="decompression" version="0" />
			</rt_info>
			<input>
				<port id="0" precision="FP16">
					<dim>128</dim>
					<dim>64</dim>
					<dim>3</dim>
					<dim>3</dim>
				</port>
			</input>
			<output>
				<port id="1" precision="FP32" names="shadow/Conv_1/weights/read:0">
					<dim>128</dim>
					<dim>64</dim>
					<dim>3</dim>
					<dim>3</dim>
				</port>
			</output>
		</layer>
		<layer id="19" name="shadow/Conv_1/Conv2D" type="Convolution" version="opset1">
			<data strides="1, 1" dilations="1, 1" pads_begin="0, 0" pads_end="0, 0" auto_pad="same_upper" />
			<input>
				<port id="0" precision="FP32">
					<dim>1</dim>
					<dim>64</dim>
					<dim>16</dim>
					<dim>60</dim>
				</port>
				<port id="1" precision="FP32">
					<dim>128</dim>
					<dim>64</dim>
					<dim>3</dim>
					<dim>3</dim>
				</port>
			</input>
			<output>
				<port id="2" precision="FP32">
					<dim>1</dim>
					<dim>128</dim>
					<dim>16</dim>
					<dim>60</dim>
				</port>
			</output>
		</layer>
		<layer id="20" name="data_add_53445349_compressed" type="Const" version="opset1">
			<data element_type="f16" shape="1, 128, 1, 1" offset="148772" size="256" />
			<output>
				<port id="0" precision="FP16">
					<dim>1</dim>
					<dim>128</dim>
					<dim>1</dim>
					<dim>1</dim>
				</port>
			</output>
		</layer>
		<layer id="21" name="data_add_53445349" type="Convert" version="opset1">
			<data destination_type="f32" />
			<rt_info>
				<attribute name="decompression" version="0" />
			</rt_info>
			<input>
				<port id="0" precision="FP16">
					<dim>1</dim>
					<dim>128</dim>
					<dim>1</dim>
					<dim>1</dim>
				</port>
			</input>
			<output>
				<port id="1" precision="FP32">
					<dim>1</dim>
					<dim>128</dim>
					<dim>1</dim>
					<dim>1</dim>
				</port>
			</output>
		</layer>
		<layer id="22" name="shadow/BatchNorm_2/FusedBatchNorm/variance/Fused_Add_" type="Add" version="opset1">
			<data auto_broadcast="numpy" />
			<input>
				<port id="0" precision="FP32">
					<dim>1</dim>
					<dim>128</dim>
					<dim>16</dim>
					<dim>60</dim>
				</port>
				<port id="1" precision="FP32">
					<dim>1</dim>
					<dim>128</dim>
					<dim>1</dim>
					<dim>1</dim>
				</port>
			</input>
			<output>
				<port id="2" precision="FP32" names="shadow/BatchNorm_2/FusedBatchNorm:0">
					<dim>1</dim>
					<dim>128</dim>
					<dim>16</dim>
					<dim>60</dim>
				</port>
			</output>
		</layer>
		<layer id="23" name="shadow/BatchNorm_2/Relu" type="ReLU" version="opset1">
			<input>
				<port id="0" precision="FP32">
					<dim>1</dim>
					<dim>128</dim>
					<dim>16</dim>
					<dim>60</dim>
				</port>
			</input>
			<output>
				<port id="1" precision="FP32" names="shadow/BatchNorm_2/Relu:0">
					<dim>1</dim>
					<dim>128</dim>
					<dim>16</dim>
					<dim>60</dim>
				</port>
			</output>
		</layer>
		<layer id="24" name="shadow/MaxPool2D_1/MaxPool" type="MaxPool" version="opset8">
			<data strides="2, 2" dilations="1, 1" pads_begin="0, 0" pads_end="0, 0" kernel="2, 2" rounding_type="floor" auto_pad="valid" index_element_type="i64" axis="0" />
			<input>
				<port id="0" precision="FP32">
					<dim>1</dim>
					<dim>128</dim>
					<dim>16</dim>
					<dim>60</dim>
				</port>
			</input>
			<output>
				<port id="1" precision="FP32" names="shadow/Dropout_2/Identity:0,shadow/MaxPool2D_1/MaxPool:0">
					<dim>1</dim>
					<dim>128</dim>
					<dim>8</dim>
					<dim>30</dim>
				</port>
				<port id="2" precision="I64">
					<dim>1</dim>
					<dim>128</dim>
					<dim>8</dim>
					<dim>30</dim>
				</port>
			</output>
		</layer>
		<layer id="25" name="shadow/BatchNorm_3/FusedBatchNorm/mean/Fused_Mul__copy_compressed" type="Const" version="opset1">
			<data element_type="f16" shape="256, 128, 3, 3" offset="149028" size="589824" />
			<output>
				<port id="0" precision="FP16">
					<dim>256</dim>
					<dim>128</dim>
					<dim>3</dim>
					<dim>3</dim>
				</port>
			</output>
		</layer>
		<layer id="26" name="shadow/BatchNorm_3/FusedBatchNorm/mean/Fused_Mul__copy" type="Convert" version="opset1">
			<data destination_type="f32" />
			<rt_info>
				<attribute name="decompression" version="0" />
			</rt_info>
			<input>
				<port id="0" precision="FP16">
					<dim>256</dim>
					<dim>128</dim>
					<dim>3</dim>
					<dim>3</dim>
				</port>
			</input>
			<output>
				<port id="1" precision="FP32" names="shadow/Conv_2/weights/read:0">
					<dim>256</dim>
					<dim>128</dim>
					<dim>3</dim>
					<dim>3</dim>
				</port>
			</output>
		</layer>
		<layer id="27" name="shadow/Conv_2/Conv2D" type="Convolution" version="opset1">
			<data strides="1, 1" dilations="1, 1" pads_begin="0, 0" pads_end="0, 0" auto_pad="same_upper" />
			<input>
				<port id="0" precision="FP32">
					<dim>1</dim>
					<dim>128</dim>
					<dim>8</dim>
					<dim>30</dim>
				</port>
				<port id="1" precision="FP32">
					<dim>256</dim>
					<dim>128</dim>
					<dim>3</dim>
					<dim>3</dim>
				</port>
			</input>
			<output>
				<port id="2" precision="FP32">
					<dim>1</dim>
					<dim>256</dim>
					<dim>8</dim>
					<dim>30</dim>
				</port>
			</output>
		</layer>
		<layer id="28" name="data_add_53525357_compressed" type="Const" version="opset1">
			<data element_type="f16" shape="1, 256, 1, 1" offset="738852" size="512" />
			<output>
				<port id="0" precision="FP16">
					<dim>1</dim>
					<dim>256</dim>
					<dim>1</dim>
					<dim>1</dim>
				</port>
			</output>
		</layer>
		<layer id="29" name="data_add_53525357" type="Convert" version="opset1">
			<data destination_type="f32" />
			<rt_info>
				<attribute name="decompression" version="0" />
			</rt_info>
			<input>
				<port id="0" precision="FP16">
					<dim>1</dim>
					<dim>256</dim>
					<dim>1</dim>
					<dim>1</dim>
				</port>
			</input>
			<output>
				<port id="1" precision="FP32">
					<dim>1</dim>
					<dim>256</dim>
					<dim>1</dim>
					<dim>1</dim>
				</port>
			</output>
		</layer>
		<layer id="30" name="shadow/BatchNorm_3/FusedBatchNorm/variance/Fused_Add_" type="Add" version="opset1">
			<data auto_broadcast="numpy" />
			<input>
				<port id="0" precision="FP32">
					<dim>1</dim>
					<dim>256</dim>
					<dim>8</dim>
					<dim>30</dim>
				</port>
				<port id="1" precision="FP32">
					<dim>1</dim>
					<dim>256</dim>
					<dim>1</dim>
					<dim>1</dim>
				</port>
			</input>
			<output>
				<port id="2" precision="FP32" names="shadow/BatchNorm_3/FusedBatchNorm:0">
					<dim>1</dim>
					<dim>256</dim>
					<dim>8</dim>
					<dim>30</dim>
				</port>
			</output>
		</layer>
		<layer id="31" name="shadow/BatchNorm_3/Relu" type="ReLU" version="opset1">
			<input>
				<port id="0" precision="FP32">
					<dim>1</dim>
					<dim>256</dim>
					<dim>8</dim>
					<dim>30</dim>
				</port>
			</input>
			<output>
				<port id="1" precision="FP32" names="shadow/BatchNorm_3/Relu:0,shadow/Dropout_3/Identity:0">
					<dim>1</dim>
					<dim>256</dim>
					<dim>8</dim>
					<dim>30</dim>
				</port>
			</output>
		</layer>
		<layer id="32" name="shadow/BatchNorm_4/FusedBatchNorm/mean/Fused_Mul__copy_compressed" type="Const" version="opset1">
			<data element_type="f16" shape="256, 256, 3, 3" offset="739364" size="1179648" />
			<output>
				<port id="0" precision="FP16">
					<dim>256</dim>
					<dim>256</dim>
					<dim>3</dim>
					<dim>3</dim>
				</port>
			</output>
		</layer>
		<layer id="33" name="shadow/BatchNorm_4/FusedBatchNorm/mean/Fused_Mul__copy" type="Convert" version="opset1">
			<data destination_type="f32" />
			<rt_info>
				<attribute name="decompression" version="0" />
			</rt_info>
			<input>
				<port id="0" precision="FP16">
					<dim>256</dim>
					<dim>256</dim>
					<dim>3</dim>
					<dim>3</dim>
				</port>
			</input>
			<output>
				<port id="1" precision="FP32" names="shadow/Conv_3/weights/read:0">
					<dim>256</dim>
					<dim>256</dim>
					<dim>3</dim>
					<dim>3</dim>
				</port>
			</output>
		</layer>
		<layer id="34" name="shadow/Conv_3/Conv2D" type="Convolution" version="opset1">
			<data strides="1, 1" dilations="1, 1" pads_begin="0, 0" pads_end="0, 0" auto_pad="same_upper" />
			<input>
				<port id="0" precision="FP32">
					<dim>1</dim>
					<dim>256</dim>
					<dim>8</dim>
					<dim>30</dim>
				</port>
				<port id="1" precision="FP32">
					<dim>256</dim>
					<dim>256</dim>
					<dim>3</dim>
					<dim>3</dim>
				</port>
			</input>
			<output>
				<port id="2" precision="FP32">
					<dim>1</dim>
					<dim>256</dim>
					<dim>8</dim>
					<dim>30</dim>
				</port>
			</output>
		</layer>
		<layer id="35" name="data_add_53605365_compressed" type="Const" version="opset1">
			<data element_type="f16" shape="1, 256, 1, 1" offset="1919012" size="512" />
			<output>
				<port id="0" precision="FP16">
					<dim>1</dim>
					<dim>256</dim>
					<dim>1</dim>
					<dim>1</dim>
				</port>
			</output>
		</layer>
		<layer id="36" name="data_add_53605365" type="Convert" version="opset1">
			<data destination_type="f32" />
			<rt_info>
				<attribute name="decompression" version="0" />
			</rt_info>
			<input>
				<port id="0" precision="FP16">
					<dim>1</dim>
					<dim>256</dim>
					<dim>1</dim>
					<dim>1</dim>
				</port>
			</input>
			<output>
				<port id="1" precision="FP32">
					<dim>1</dim>
					<dim>256</dim>
					<dim>1</dim>
					<dim>1</dim>
				</port>
			</output>
		</layer>
		<layer id="37" name="shadow/BatchNorm_4/FusedBatchNorm/variance/Fused_Add_" type="Add" version="opset1">
			<data auto_broadcast="numpy" />
			<input>
				<port id="0" precision="FP32">
					<dim>1</dim>
					<dim>256</dim>
					<dim>8</dim>
					<dim>30</dim>
				</port>
				<port id="1" precision="FP32">
					<dim>1</dim>
					<dim>256</dim>
					<dim>1</dim>
					<dim>1</dim>
				</port>
			</input>
			<output>
				<port id="2" precision="FP32" names="shadow/BatchNorm_4/FusedBatchNorm:0">
					<dim>1</dim>
					<dim>256</dim>
					<dim>8</dim>
					<dim>30</dim>
				</port>
			</output>
		</layer>
		<layer id="38" name="shadow/BatchNorm_4/Relu" type="ReLU" version="opset1">
			<input>
				<port id="0" precision="FP32">
					<dim>1</dim>
					<dim>256</dim>
					<dim>8</dim>
					<dim>30</dim>
				</port>
			</input>
			<output>
				<port id="1" precision="FP32" names="shadow/BatchNorm_4/Relu:0">
					<dim>1</dim>
					<dim>256</dim>
					<dim>8</dim>
					<dim>30</dim>
				</port>
			</output>
		</layer>
		<layer id="39" name="shadow/MaxPool2D_2/MaxPool" type="MaxPool" version="opset8">
			<data strides="2, 1" dilations="1, 1" pads_begin="0, 0" pads_end="0, 0" kernel="2, 1" rounding_type="floor" auto_pad="valid" index_element_type="i64" axis="0" />
			<input>
				<port id="0" precision="FP32">
					<dim>1</dim>
					<dim>256</dim>
					<dim>8</dim>
					<dim>30</dim>
				</port>
			</input>
			<output>
				<port id="1" precision="FP32" names="shadow/Dropout_4/Identity:0,shadow/MaxPool2D_2/MaxPool:0">
					<dim>1</dim>
					<dim>256</dim>
					<dim>4</dim>
					<dim>30</dim>
				</port>
				<port id="2" precision="I64">
					<dim>1</dim>
					<dim>256</dim>
					<dim>4</dim>
					<dim>30</dim>
				</port>
			</output>
		</layer>
		<layer id="40" name="shadow/BatchNorm_5/FusedBatchNorm/mean/Fused_Mul__copy_compressed" type="Const" version="opset1">
			<data element_type="f16" shape="512, 256, 3, 3" offset="1919524" size="2359296" />
			<output>
				<port id="0" precision="FP16">
					<dim>512</dim>
					<dim>256</dim>
					<dim>3</dim>
					<dim>3</dim>
				</port>
			</output>
		</layer>
		<layer id="41" name="shadow/BatchNorm_5/FusedBatchNorm/mean/Fused_Mul__copy" type="Convert" version="opset1">
			<data destination_type="f32" />
			<rt_info>
				<attribute name="decompression" version="0" />
			</rt_info>
			<input>
				<port id="0" precision="FP16">
					<dim>512</dim>
					<dim>256</dim>
					<dim>3</dim>
					<dim>3</dim>
				</port>
			</input>
			<output>
				<port id="1" precision="FP32" names="shadow/Conv_4/weights/read:0">
					<dim>512</dim>
					<dim>256</dim>
					<dim>3</dim>
					<dim>3</dim>
				</port>
			</output>
		</layer>
		<layer id="42" name="shadow/Conv_4/Conv2D" type="Convolution" version="opset1">
			<data strides="1, 1" dilations="1, 1" pads_begin="0, 0" pads_end="0, 0" auto_pad="same_upper" />
			<input>
				<port id="0" precision="FP32">
					<dim>1</dim>
					<dim>256</dim>
					<dim>4</dim>
					<dim>30</dim>
				</port>
				<port id="1" precision="FP32">
					<dim>512</dim>
					<dim>256</dim>
					<dim>3</dim>
					<dim>3</dim>
				</port>
			</input>
			<output>
				<port id="2" precision="FP32">
					<dim>1</dim>
					<dim>512</dim>
					<dim>4</dim>
					<dim>30</dim>
				</port>
			</output>
		</layer>
		<layer id="43" name="data_add_53685373_compressed" type="Const" version="opset1">
			<data element_type="f16" shape="1, 512, 1, 1" offset="4278820" size="1024" />
			<output>
				<port id="0" precision="FP16">
					<dim>1</dim>
					<dim>512</dim>
					<dim>1</dim>
					<dim>1</dim>
				</port>
			</output>
		</layer>
		<layer id="44" name="data_add_53685373" type="Convert" version="opset1">
			<data destination_type="f32" />
			<rt_info>
				<attribute name="decompression" version="0" />
			</rt_info>
			<input>
				<port id="0" precision="FP16">
					<dim>1</dim>
					<dim>512</dim>
					<dim>1</dim>
					<dim>1</dim>
				</port>
			</input>
			<output>
				<port id="1" precision="FP32">
					<dim>1</dim>
					<dim>512</dim>
					<dim>1</dim>
					<dim>1</dim>
				</port>
			</output>
		</layer>
		<layer id="45" name="shadow/BatchNorm_5/FusedBatchNorm/variance/Fused_Add_" type="Add" version="opset1">
			<data auto_broadcast="numpy" />
			<input>
				<port id="0" precision="FP32">
					<dim>1</dim>
					<dim>512</dim>
					<dim>4</dim>
					<dim>30</dim>
				</port>
				<port id="1" precision="FP32">
					<dim>1</dim>
					<dim>512</dim>
					<dim>1</dim>
					<dim>1</dim>
				</port>
			</input>
			<output>
				<port id="2" precision="FP32" names="shadow/BatchNorm_5/FusedBatchNorm:0">
					<dim>1</dim>
					<dim>512</dim>
					<dim>4</dim>
					<dim>30</dim>
				</port>
			</output>
		</layer>
		<layer id="46" name="shadow/BatchNorm_5/Relu" type="ReLU" version="opset1">
			<input>
				<port id="0" precision="FP32">
					<dim>1</dim>
					<dim>512</dim>
					<dim>4</dim>
					<dim>30</dim>
				</port>
			</input>
			<output>
				<port id="1" precision="FP32" names="shadow/BatchNorm_5/Relu:0,shadow/Dropout_5/Identity:0">
					<dim>1</dim>
					<dim>512</dim>
					<dim>4</dim>
					<dim>30</dim>
				</port>
			</output>
		</layer>
		<layer id="47" name="shadow/BatchNorm_6/FusedBatchNorm/mean/Fused_Mul__copy_compressed" type="Const" version="opset1">
			<data element_type="f16" shape="512, 512, 3, 3" offset="4279844" size="4718592" />
			<output>
				<port id="0" precision="FP16">
					<dim>512</dim>
					<dim>512</dim>
					<dim>3</dim>
					<dim>3</dim>
				</port>
			</output>
		</layer>
		<layer id="48" name="shadow/BatchNorm_6/FusedBatchNorm/mean/Fused_Mul__copy" type="Convert" version="opset1">
			<data destination_type="f32" />
			<rt_info>
				<attribute name="decompression" version="0" />
			</rt_info>
			<input>
				<port id="0" precision="FP16">
					<dim>512</dim>
					<dim>512</dim>
					<dim>3</dim>
					<dim>3</dim>
				</port>
			</input>
			<output>
				<port id="1" precision="FP32" names="shadow/Conv_5/weights/read:0">
					<dim>512</dim>
					<dim>512</dim>
					<dim>3</dim>
					<dim>3</dim>
				</port>
			</output>
		</layer>
		<layer id="49" name="shadow/Conv_5/Conv2D" type="Convolution" version="opset1">
			<data strides="1, 1" dilations="1, 1" pads_begin="0, 0" pads_end="0, 0" auto_pad="same_upper" />
			<input>
				<port id="0" precision="FP32">
					<dim>1</dim>
					<dim>512</dim>
					<dim>4</dim>
					<dim>30</dim>
				</port>
				<port id="1" precision="FP32">
					<dim>512</dim>
					<dim>512</dim>
					<dim>3</dim>
					<dim>3</dim>
				</port>
			</input>
			<output>
				<port id="2" precision="FP32">
					<dim>1</dim>
					<dim>512</dim>
					<dim>4</dim>
					<dim>30</dim>
				</port>
			</output>
		</layer>
		<layer id="50" name="data_add_53765381_compressed" type="Const" version="opset1">
			<data element_type="f16" shape="1, 512, 1, 1" offset="8998436" size="1024" />
			<output>
				<port id="0" precision="FP16">
					<dim>1</dim>
					<dim>512</dim>
					<dim>1</dim>
					<dim>1</dim>
				</port>
			</output>
		</layer>
		<layer id="51" name="data_add_53765381" type="Convert" version="opset1">
			<data destination_type="f32" />
			<rt_info>
				<attribute name="decompression" version="0" />
			</rt_info>
			<input>
				<port id="0" precision="FP16">
					<dim>1</dim>
					<dim>512</dim>
					<dim>1</dim>
					<dim>1</dim>
				</port>
			</input>
			<output>
				<port id="1" precision="FP32">
					<dim>1</dim>
					<dim>512</dim>
					<dim>1</dim>
					<dim>1</dim>
				</port>
			</output>
		</layer>
		<layer id="52" name="shadow/BatchNorm_6/FusedBatchNorm/variance/Fused_Add_" type="Add" version="opset1">
			<data auto_broadcast="numpy" />
			<input>
				<port id="0" precision="FP32">
					<dim>1</dim>
					<dim>512</dim>
					<dim>4</dim>
					<dim>30</dim>
				</port>
				<port id="1" precision="FP32">
					<dim>1</dim>
					<dim>512</dim>
					<dim>1</dim>
					<dim>1</dim>
				</port>
			</input>
			<output>
				<port id="2" precision="FP32" names="shadow/BatchNorm_6/FusedBatchNorm:0">
					<dim>1</dim>
					<dim>512</dim>
					<dim>4</dim>
					<dim>30</dim>
				</port>
			</output>
		</layer>
		<layer id="53" name="shadow/BatchNorm_6/Relu" type="ReLU" version="opset1">
			<input>
				<port id="0" precision="FP32">
					<dim>1</dim>
					<dim>512</dim>
					<dim>4</dim>
					<dim>30</dim>
				</port>
			</input>
			<output>
				<port id="1" precision="FP32" names="shadow/BatchNorm_6/Relu:0">
					<dim>1</dim>
					<dim>512</dim>
					<dim>4</dim>
					<dim>30</dim>
				</port>
			</output>
		</layer>
		<layer id="54" name="shadow/MaxPool2D_3/MaxPool" type="MaxPool" version="opset8">
			<data strides="2, 1" dilations="1, 1" pads_begin="0, 0" pads_end="0, 0" kernel="2, 1" rounding_type="floor" auto_pad="valid" index_element_type="i64" axis="0" />
			<input>
				<port id="0" precision="FP32">
					<dim>1</dim>
					<dim>512</dim>
					<dim>4</dim>
					<dim>30</dim>
				</port>
			</input>
			<output>
				<port id="1" precision="FP32" names="shadow/Dropout_6/Identity:0,shadow/MaxPool2D_3/MaxPool:0">
					<dim>1</dim>
					<dim>512</dim>
					<dim>2</dim>
					<dim>30</dim>
				</port>
				<port id="2" precision="I64">
					<dim>1</dim>
					<dim>512</dim>
					<dim>2</dim>
					<dim>30</dim>
				</port>
			</output>
		</layer>
		<layer id="55" name="shadow/BatchNorm_7/FusedBatchNorm/mean/Fused_Mul__copy_compressed" type="Const" version="opset1">
			<data element_type="f16" shape="512, 512, 2, 2" offset="8999460" size="2097152" />
			<output>
				<port id="0" precision="FP16">
					<dim>512</dim>
					<dim>512</dim>
					<dim>2</dim>
					<dim>2</dim>
				</port>
			</output>
		</layer>
		<layer id="56" name="shadow/BatchNorm_7/FusedBatchNorm/mean/Fused_Mul__copy" type="Convert" version="opset1">
			<data destination_type="f32" />
			<rt_info>
				<attribute name="decompression" version="0" />
			</rt_info>
			<input>
				<port id="0" precision="FP16">
					<dim>512</dim>
					<dim>512</dim>
					<dim>2</dim>
					<dim>2</dim>
				</port>
			</input>
			<output>
				<port id="1" precision="FP32" names="shadow/Conv_6/weights/read:0">
					<dim>512</dim>
					<dim>512</dim>
					<dim>2</dim>
					<dim>2</dim>
				</port>
			</output>
		</layer>
		<layer id="57" name="shadow/Conv_6/Conv2D" type="Convolution" version="opset1">
			<data strides="2, 1" dilations="1, 1" pads_begin="0, 0" pads_end="0, 0" auto_pad="same_upper" />
			<input>
				<port id="0" precision="FP32">
					<dim>1</dim>
					<dim>512</dim>
					<dim>2</dim>
					<dim>30</dim>
				</port>
				<port id="1" precision="FP32">
					<dim>512</dim>
					<dim>512</dim>
					<dim>2</dim>
					<dim>2</dim>
				</port>
			</input>
			<output>
				<port id="2" precision="FP32">
					<dim>1</dim>
					<dim>512</dim>
					<dim>1</dim>
					<dim>30</dim>
				</port>
			</output>
		</layer>
		<layer id="58" name="data_add_53845389_compressed" type="Const" version="opset1">
			<data element_type="f16" shape="1, 512, 1, 1" offset="11096612" size="1024" />
			<output>
				<port id="0" precision="FP16">
					<dim>1</dim>
					<dim>512</dim>
					<dim>1</dim>
					<dim>1</dim>
				</port>
			</output>
		</layer>
		<layer id="59" name="data_add_53845389" type="Convert" version="opset1">
			<data destination_type="f32" />
			<rt_info>
				<attribute name="decompression" version="0" />
			</rt_info>
			<input>
				<port id="0" precision="FP16">
					<dim>1</dim>
					<dim>512</dim>
					<dim>1</dim>
					<dim>1</dim>
				</port>
			</input>
			<output>
				<port id="1" precision="FP32">
					<dim>1</dim>
					<dim>512</dim>
					<dim>1</dim>
					<dim>1</dim>
				</port>
			</output>
		</layer>
		<layer id="60" name="shadow/BatchNorm_7/FusedBatchNorm/variance/Fused_Add_" type="Add" version="opset1">
			<data auto_broadcast="numpy" />
			<input>
				<port id="0" precision="FP32">
					<dim>1</dim>
					<dim>512</dim>
					<dim>1</dim>
					<dim>30</dim>
				</port>
				<port id="1" precision="FP32">
					<dim>1</dim>
					<dim>512</dim>
					<dim>1</dim>
					<dim>1</dim>
				</port>
			</input>
			<output>
				<port id="2" precision="FP32" names="shadow/BatchNorm_7/FusedBatchNorm:0">
					<dim>1</dim>
					<dim>512</dim>
					<dim>1</dim>
					<dim>30</dim>
				</port>
			</output>
		</layer>
		<layer id="61" name="shadow/BatchNorm_7/Relu" type="ReLU" version="opset1">
			<input>
				<port id="0" precision="FP32">
					<dim>1</dim>
					<dim>512</dim>
					<dim>1</dim>
					<dim>30</dim>
				</port>
			</input>
			<output>
				<port id="1" precision="FP32">
					<dim>1</dim>
					<dim>512</dim>
					<dim>1</dim>
					<dim>30</dim>
				</port>
			</output>
		</layer>
		<layer id="62" name="Constant_2455" type="Const" version="opset1">
			<data element_type="i64" shape="1" offset="11097636" size="8" />
			<output>
				<port id="0" precision="I64">
					<dim>1</dim>
				</port>
			</output>
		</layer>
		<layer id="63" name="Squeeze_2456" type="Squeeze" version="opset1">
			<input>
				<port id="0" precision="FP32">
					<dim>1</dim>
					<dim>512</dim>
					<dim>1</dim>
					<dim>30</dim>
				</port>
				<port id="1" precision="I64">
					<dim>1</dim>
				</port>
			</input>
			<output>
				<port id="2" precision="FP32">
					<dim>1</dim>
					<dim>512</dim>
					<dim>30</dim>
				</port>
			</output>
		</layer>
		<layer id="64" name="Constant_2457" type="Const" version="opset1">
			<data element_type="i64" shape="3" offset="11097644" size="24" />
			<output>
				<port id="0" precision="I64">
					<dim>3</dim>
				</port>
			</output>
		</layer>
		<layer id="65" name="shadow/Squeeze" type="Transpose" version="opset1">
			<input>
				<port id="0" precision="FP32">
					<dim>1</dim>
					<dim>512</dim>
					<dim>30</dim>
				</port>
				<port id="1" precision="I64">
					<dim>3</dim>
				</port>
			</input>
			<output>
				<port id="2" precision="FP32" names="shadow/LSTMLayers/encoder/stack_bidirectional_rnn/cell_0/bidirectional_rnn/bw/ReverseV2:0,shadow/LSTMLayers/encoder/stack_bidirectional_rnn/cell_0/bidirectional_rnn/bw/bw/transpose:0,shadow/LSTMLayers/encoder/stack_bidirectional_rnn/cell_0/bidirectional_rnn/fw/fw/transpose:0,shadow/Squeeze:0">
					<dim>1</dim>
					<dim>30</dim>
					<dim>512</dim>
				</port>
			</output>
		</layer>
		<layer id="66" name="Constant_940_compressed" type="Const" version="opset1">
			<data element_type="f16" shape="1, 256" offset="11097668" size="512" />
			<output>
				<port id="0" precision="FP16">
					<dim>1</dim>
					<dim>256</dim>
				</port>
			</output>
		</layer>
		<layer id="67" name="Constant_940" type="Convert" version="opset1">
			<data destination_type="f32" />
			<rt_info>
				<attribute name="decompression" version="0" />
			</rt_info>
			<input>
				<port id="0" precision="FP16">
					<dim>1</dim>
					<dim>256</dim>
				</port>
			</input>
			<output>
				<port id="1" precision="FP32" names="shadow/LSTMLayers/encoder/stack_bidirectional_rnn/cell_0/bidirectional_rnn/fw/fw/while/Enter_4:0">
					<dim>1</dim>
					<dim>256</dim>
				</port>
			</output>
		</layer>
		<layer id="68" name="ShapeOf_936" type="ShapeOf" version="opset3">
			<data output_type="i64" />
			<input>
				<port id="0" precision="FP32">
					<dim>1</dim>
					<dim>30</dim>
					<dim>512</dim>
				</port>
			</input>
			<output>
				<port id="1" precision="I64">
					<dim>3</dim>
				</port>
			</output>
		</layer>
		<layer id="69" name="Constant_938" type="Const" version="opset1">
			<data element_type="i64" shape="1" offset="11098180" size="8" />
			<output>
				<port id="0" precision="I64">
					<dim>1</dim>
				</port>
			</output>
		</layer>
		<layer id="70" name="Constant_937" type="Const" version="opset1">
			<data element_type="i64" shape="" offset="11098180" size="8" />
			<output>
				<port id="0" precision="I64" />
			</output>
		</layer>
		<layer id="71" name="Gather_939" type="Gather" version="opset8">
			<data batch_dims="0" />
			<input>
				<port id="0" precision="I64">
					<dim>3</dim>
				</port>
				<port id="1" precision="I64">
					<dim>1</dim>
				</port>
				<port id="2" precision="I64" />
			</input>
			<output>
				<port id="3" precision="I64">
					<dim>1</dim>
				</port>
			</output>
		</layer>
		<layer id="72" name="Constant_946" type="Const" version="opset1">
			<data element_type="i64" shape="1" offset="11098188" size="8" />
			<output>
				<port id="0" precision="I64">
					<dim>1</dim>
				</port>
			</output>
		</layer>
		<layer id="73" name="Concat_947" type="Concat" version="opset1">
			<data axis="0" />
			<input>
				<port id="0" precision="I64">
					<dim>1</dim>
				</port>
				<port id="1" precision="I64">
					<dim>1</dim>
				</port>
			</input>
			<output>
				<port id="2" precision="I64">
					<dim>2</dim>
				</port>
			</output>
		</layer>
		<layer id="74" name="Broadcast_948" type="Broadcast" version="opset3">
			<data mode="numpy" />
			<input>
				<port id="0" precision="FP32">
					<dim>1</dim>
					<dim>256</dim>
				</port>
				<port id="1" precision="I64">
					<dim>2</dim>
				</port>
			</input>
			<output>
				<port id="2" precision="FP32">
					<dim>1</dim>
					<dim>256</dim>
				</port>
			</output>
		</layer>
		<layer id="75" name="Constant_2504" type="Const" version="opset1">
			<data element_type="i64" shape="1" offset="11098196" size="8" />
			<output>
				<port id="0" precision="I64">
					<dim>1</dim>
				</port>
			</output>
		</layer>
		<layer id="76" name="Unsqueeze_2505" type="Unsqueeze" version="opset1">
			<input>
				<port id="0" precision="FP32">
					<dim>1</dim>
					<dim>256</dim>
				</port>
				<port id="1" precision="I64">
					<dim>1</dim>
				</port>
			</input>
			<output>
				<port id="2" precision="FP32">
					<dim>1</dim>
					<dim>1</dim>
					<dim>256</dim>
				</port>
			</output>
		</layer>
		<layer id="77" name="Constant_951_compressed" type="Const" version="opset1">
			<data element_type="f16" shape="1, 256" offset="11097668" size="512" />
			<output>
				<port id="0" precision="FP16">
					<dim>1</dim>
					<dim>256</dim>
				</port>
			</output>
		</layer>
		<layer id="78" name="Constant_951" type="Convert" version="opset1">
			<data destination_type="f32" />
			<rt_info>
				<attribute name="decompression" version="0" />
			</rt_info>
			<input>
				<port id="0" precision="FP16">
					<dim>1</dim>
					<dim>256</dim>
				</port>
			</input>
			<output>
				<port id="1" precision="FP32" names="shadow/LSTMLayers/encoder/stack_bidirectional_rnn/cell_0/bidirectional_rnn/fw/fw/while/Enter_3:0">
					<dim>1</dim>
					<dim>256</dim>
				</port>
			</output>
		</layer>
		<layer id="79" name="Constant_957" type="Const" version="opset1">
			<data element_type="i64" shape="1" offset="11098188" size="8" />
			<output>
				<port id="0" precision="I64">
					<dim>1</dim>
				</port>
			</output>
		</layer>
		<layer id="80" name="Concat_958" type="Concat" version="opset1">
			<data axis="0" />
			<input>
				<port id="0" precision="I64">
					<dim>1</dim>
				</port>
				<port id="1" precision="I64">
					<dim>1</dim>
				</port>
			</input>
			<output>
				<port id="2" precision="I64">
					<dim>2</dim>
				</port>
			</output>
		</layer>
		<layer id="81" name="Broadcast_959" type="Broadcast" version="opset3">
			<data mode="numpy" />
			<input>
				<port id="0" precision="FP32">
					<dim>1</dim>
					<dim>256</dim>
				</port>
				<port id="1" precision="I64">
					<dim>2</dim>
				</port>
			</input>
			<output>
				<port id="2" precision="FP32">
					<dim>1</dim>
					<dim>256</dim>
				</port>
			</output>
		</layer>
		<layer id="82" name="Unsqueeze_2506" type="Unsqueeze" version="opset1">
			<input>
				<port id="0" precision="FP32">
					<dim>1</dim>
					<dim>256</dim>
				</port>
				<port id="1" precision="I64">
					<dim>1</dim>
				</port>
			</input>
			<output>
				<port id="2" precision="FP32">
					<dim>1</dim>
					<dim>1</dim>
					<dim>256</dim>
				</port>
			</output>
		</layer>
		<layer id="83" name="ShapeOf_2507" type="ShapeOf" version="opset3">
			<data output_type="i64" />
			<input>
				<port id="0" precision="FP32">
					<dim>1</dim>
					<dim>30</dim>
					<dim>512</dim>
				</port>
			</input>
			<output>
				<port id="1" precision="I64">
					<dim>3</dim>
				</port>
			</output>
		</layer>
		<layer id="84" name="Constant_2512" type="Const" version="opset1">
			<data element_type="i64" shape="1" offset="11098196" size="8" />
			<output>
				<port id="0" precision="I64">
					<dim>1</dim>
				</port>
			</output>
		</layer>
		<layer id="85" name="Constant_2511" type="Const" version="opset1">
			<data element_type="i64" shape="" offset="11098180" size="8" />
			<output>
				<port id="0" precision="I64" />
			</output>
		</layer>
		<layer id="86" name="Gather_2513" type="Gather" version="opset1">
			<input>
				<port id="0" precision="I64">
					<dim>3</dim>
				</port>
				<port id="1" precision="I64">
					<dim>1</dim>
				</port>
				<port id="2" precision="I64" />
			</input>
			<output>
				<port id="3" precision="I64">
					<dim>1</dim>
				</port>
			</output>
		</layer>
		<layer id="87" name="Constant_2509" type="Const" version="opset1">
			<data element_type="i64" shape="1" offset="11098180" size="8" />
			<output>
				<port id="0" precision="I64">
					<dim>1</dim>
				</port>
			</output>
		</layer>
		<layer id="88" name="Constant_2508" type="Const" version="opset1">
			<data element_type="i64" shape="" offset="11098180" size="8" />
			<output>
				<port id="0" precision="I64" />
			</output>
		</layer>
		<layer id="89" name="Gather_2510" type="Gather" version="opset1">
			<input>
				<port id="0" precision="I64">
					<dim>3</dim>
				</port>
				<port id="1" precision="I64">
					<dim>1</dim>
				</port>
				<port id="2" precision="I64" />
			</input>
			<output>
				<port id="3" precision="I64">
					<dim>1</dim>
				</port>
			</output>
		</layer>
		<layer id="90" name="Broadcast_2514" type="Broadcast" version="opset3">
			<data mode="numpy" />
			<input>
				<port id="0" precision="I64">
					<dim>1</dim>
				</port>
				<port id="1" precision="I64">
					<dim>1</dim>
				</port>
			</input>
			<output>
				<port id="2" precision="I64">
					<dim>1</dim>
				</port>
			</output>
		</layer>
		<layer id="91" name="Constant_2523_compressed" type="Const" version="opset1">
			<data element_type="f16" shape="1, 1024, 512" offset="11098204" size="1048576" />
			<output>
				<port id="0" precision="FP16">
					<dim>1</dim>
					<dim>1024</dim>
					<dim>512</dim>
				</port>
			</output>
		</layer>
		<layer id="92" name="Constant_2523" type="Convert" version="opset1">
			<data destination_type="f32" />
			<rt_info>
				<attribute name="decompression" version="0" />
			</rt_info>
			<input>
				<port id="0" precision="FP16">
					<dim>1</dim>
					<dim>1024</dim>
					<dim>512</dim>
				</port>
			</input>
			<output>
				<port id="1" precision="FP32">
					<dim>1</dim>
					<dim>1024</dim>
					<dim>512</dim>
				</port>
			</output>
		</layer>
		<layer id="93" name="Constant_2525_compressed" type="Const" version="opset1">
			<data element_type="f16" shape="1, 1024, 256" offset="12146780" size="524288" />
			<output>
				<port id="0" precision="FP16">
					<dim>1</dim>
					<dim>1024</dim>
					<dim>256</dim>
				</port>
			</output>
		</layer>
		<layer id="94" name="Constant_2525" type="Convert" version="opset1">
			<data destination_type="f32" />
			<rt_info>
				<attribute name="decompression" version="0" />
			</rt_info>
			<input>
				<port id="0" precision="FP16">
					<dim>1</dim>
					<dim>1024</dim>
					<dim>256</dim>
				</port>
			</input>
			<output>
				<port id="1" precision="FP32">
					<dim>1</dim>
					<dim>1024</dim>
					<dim>256</dim>
				</port>
			</output>
		</layer>
		<layer id="95" name="Constant_2527_compressed" type="Const" version="opset1">
			<data element_type="f16" shape="1, 1024" offset="12671068" size="2048" />
			<output>
				<port id="0" precision="FP16">
					<dim>1</dim>
					<dim>1024</dim>
				</port>
			</output>
		</layer>
		<layer id="96" name="Constant_2527" type="Convert" version="opset1">
			<data destination_type="f32" />
			<rt_info>
				<attribute name="decompression" version="0" />
			</rt_info>
			<input>
				<port id="0" precision="FP16">
					<dim>1</dim>
					<dim>1024</dim>
				</port>
			</input>
			<output>
				<port id="1" precision="FP32">
					<dim>1</dim>
					<dim>1024</dim>
				</port>
			</output>
		</layer>
		<layer id="97" name="LSTMSequence_2528" type="LSTMSequence" version="opset5">
			<data direction="forward" hidden_size="256" activations="sigmoid, tanh, tanh" activations_alpha="" activations_beta="" clip="0" />
			<input>
				<port id="0" precision="FP32">
					<dim>1</dim>
					<dim>30</dim>
					<dim>512</dim>
				</port>
				<port id="1" precision="FP32">
					<dim>1</dim>
					<dim>1</dim>
					<dim>256</dim>
				</port>
				<port id="2" precision="FP32">
					<dim>1</dim>
					<dim>1</dim>
					<dim>256</dim>
				</port>
				<port id="3" precision="I64">
					<dim>1</dim>
				</port>
				<port id="4" precision="FP32">
					<dim>1</dim>
					<dim>1024</dim>
					<dim>512</dim>
				</port>
				<port id="5" precision="FP32">
					<dim>1</dim>
					<dim>1024</dim>
					<dim>256</dim>
				</port>
				<port id="6" precision="FP32">
					<dim>1</dim>
					<dim>1024</dim>
				</port>
			</input>
			<output>
				<port id="7" precision="FP32">
					<dim>1</dim>
					<dim>1</dim>
					<dim>30</dim>
					<dim>256</dim>
				</port>
				<port id="8" precision="FP32">
					<dim>1</dim>
					<dim>1</dim>
					<dim>256</dim>
				</port>
				<port id="9" precision="FP32">
					<dim>1</dim>
					<dim>1</dim>
					<dim>256</dim>
				</port>
			</output>
		</layer>
		<layer id="98" name="Constant_2529" type="Const" version="opset1">
			<data element_type="i64" shape="1" offset="11098196" size="8" />
			<output>
				<port id="0" precision="I64">
					<dim>1</dim>
				</port>
			</output>
		</layer>
		<layer id="99" name="shadow/LSTMLayers/encoder/stack_bidirectional_rnn/cell_0/bidirectional_rnn/fw/fw/while/LoopCond/TensorIteratorCondition_/TensorIterator.0" type="Squeeze" version="opset1">
			<input>
				<port id="0" precision="FP32">
					<dim>1</dim>
					<dim>1</dim>
					<dim>30</dim>
					<dim>256</dim>
				</port>
				<port id="1" precision="I64">
					<dim>1</dim>
				</port>
			</input>
			<output>
				<port id="2" precision="FP32" names="shadow/LSTMLayers/encoder/stack_bidirectional_rnn/cell_0/bidirectional_rnn/fw/fw/TensorArrayStack/TensorArrayGatherV3:0,shadow/LSTMLayers/encoder/stack_bidirectional_rnn/cell_0/bidirectional_rnn/fw/fw/transpose_1:0">
					<dim>1</dim>
					<dim>30</dim>
					<dim>256</dim>
				</port>
			</output>
		</layer>
		<layer id="100" name="Constant_970_compressed" type="Const" version="opset1">
			<data element_type="f16" shape="1, 256" offset="11097668" size="512" />
			<output>
				<port id="0" precision="FP16">
					<dim>1</dim>
					<dim>256</dim>
				</port>
			</output>
		</layer>
		<layer id="101" name="Constant_970" type="Convert" version="opset1">
			<data destination_type="f32" />
			<rt_info>
				<attribute name="decompression" version="0" />
			</rt_info>
			<input>
				<port id="0" precision="FP16">
					<dim>1</dim>
					<dim>256</dim>
				</port>
			</input>
			<output>
				<port id="1" precision="FP32" names="shadow/LSTMLayers/encoder/stack_bidirectional_rnn/cell_0/bidirectional_rnn/bw/bw/while/Enter_4:0">
					<dim>1</dim>
					<dim>256</dim>
				</port>
			</output>
		</layer>
		<layer id="102" name="Constant_968" type="Const" version="opset1">
			<data element_type="i64" shape="1" offset="11098180" size="8" />
			<output>
				<port id="0" precision="I64">
					<dim>1</dim>
				</port>
			</output>
		</layer>
		<layer id="103" name="Constant_967" type="Const" version="opset1">
			<data element_type="i64" shape="" offset="11098180" size="8" />
			<output>
				<port id="0" precision="I64" />
			</output>
		</layer>
		<layer id="104" name="Gather_969" type="Gather" version="opset8">
			<data batch_dims="0" />
			<input>
				<port id="0" precision="I64">
					<dim>3</dim>
				</port>
				<port id="1" precision="I64">
					<dim>1</dim>
				</port>
				<port id="2" precision="I64" />
			</input>
			<output>
				<port id="3" precision="I64">
					<dim>1</dim>
				</port>
			</output>
		</layer>
		<layer id="105" name="Constant_976" type="Const" version="opset1">
			<data element_type="i64" shape="1" offset="11098188" size="8" />
			<output>
				<port id="0" precision="I64">
					<dim>1</dim>
				</port>
			</output>
		</layer>
		<layer id="106" name="Concat_977" type="Concat" version="opset1">
			<data axis="0" />
			<input>
				<port id="0" precision="I64">
					<dim>1</dim>
				</port>
				<port id="1" precision="I64">
					<dim>1</dim>
				</port>
			</input>
			<output>
				<port id="2" precision="I64">
					<dim>2</dim>
				</port>
			</output>
		</layer>
		<layer id="107" name="Broadcast_978" type="Broadcast" version="opset3">
			<data mode="numpy" />
			<input>
				<port id="0" precision="FP32">
					<dim>1</dim>
					<dim>256</dim>
				</port>
				<port id="1" precision="I64">
					<dim>2</dim>
				</port>
			</input>
			<output>
				<port id="2" precision="FP32">
					<dim>1</dim>
					<dim>256</dim>
				</port>
			</output>
		</layer>
		<layer id="108" name="Constant_2544" type="Const" version="opset1">
			<data element_type="i64" shape="1" offset="11098196" size="8" />
			<output>
				<port id="0" precision="I64">
					<dim>1</dim>
				</port>
			</output>
		</layer>
		<layer id="109" name="Unsqueeze_2545" type="Unsqueeze" version="opset1">
			<input>
				<port id="0" precision="FP32">
					<dim>1</dim>
					<dim>256</dim>
				</port>
				<port id="1" precision="I64">
					<dim>1</dim>
				</port>
			</input>
			<output>
				<port id="2" precision="FP32">
					<dim>1</dim>
					<dim>1</dim>
					<dim>256</dim>
				</port>
			</output>
		</layer>
		<layer id="110" name="Constant_981_compressed" type="Const" version="opset1">
			<data element_type="f16" shape="1, 256" offset="11097668" size="512" />
			<output>
				<port id="0" precision="FP16">
					<dim>1</dim>
					<dim>256</dim>
				</port>
			</output>
		</layer>
		<layer id="111" name="Constant_981" type="Convert" version="opset1">
			<data destination_type="f32" />
			<rt_info>
				<attribute name="decompression" version="0" />
			</rt_info>
			<input>
				<port id="0" precision="FP16">
					<dim>1</dim>
					<dim>256</dim>
				</port>
			</input>
			<output>
				<port id="1" precision="FP32" names="shadow/LSTMLayers/encoder/stack_bidirectional_rnn/cell_0/bidirectional_rnn/bw/bw/while/Enter_3:0">
					<dim>1</dim>
					<dim>256</dim>
				</port>
			</output>
		</layer>
		<layer id="112" name="Constant_987" type="Const" version="opset1">
			<data element_type="i64" shape="1" offset="11098188" size="8" />
			<output>
				<port id="0" precision="I64">
					<dim>1</dim>
				</port>
			</output>
		</layer>
		<layer id="113" name="Concat_988" type="Concat" version="opset1">
			<data axis="0" />
			<input>
				<port id="0" precision="I64">
					<dim>1</dim>
				</port>
				<port id="1" precision="I64">
					<dim>1</dim>
				</port>
			</input>
			<output>
				<port id="2" precision="I64">
					<dim>2</dim>
				</port>
			</output>
		</layer>
		<layer id="114" name="Broadcast_989" type="Broadcast" version="opset3">
			<data mode="numpy" />
			<input>
				<port id="0" precision="FP32">
					<dim>1</dim>
					<dim>256</dim>
				</port>
				<port id="1" precision="I64">
					<dim>2</dim>
				</port>
			</input>
			<output>
				<port id="2" precision="FP32">
					<dim>1</dim>
					<dim>256</dim>
				</port>
			</output>
		</layer>
		<layer id="115" name="Unsqueeze_2546" type="Unsqueeze" version="opset1">
			<input>
				<port id="0" precision="FP32">
					<dim>1</dim>
					<dim>256</dim>
				</port>
				<port id="1" precision="I64">
					<dim>1</dim>
				</port>
			</input>
			<output>
				<port id="2" precision="FP32">
					<dim>1</dim>
					<dim>1</dim>
					<dim>256</dim>
				</port>
			</output>
		</layer>
		<layer id="116" name="ShapeOf_2547" type="ShapeOf" version="opset3">
			<data output_type="i64" />
			<input>
				<port id="0" precision="FP32">
					<dim>1</dim>
					<dim>30</dim>
					<dim>512</dim>
				</port>
			</input>
			<output>
				<port id="1" precision="I64">
					<dim>3</dim>
				</port>
			</output>
		</layer>
		<layer id="117" name="Constant_2552" type="Const" version="opset1">
			<data element_type="i64" shape="1" offset="11098196" size="8" />
			<output>
				<port id="0" precision="I64">
					<dim>1</dim>
				</port>
			</output>
		</layer>
		<layer id="118" name="Constant_2551" type="Const" version="opset1">
			<data element_type="i64" shape="" offset="11098180" size="8" />
			<output>
				<port id="0" precision="I64" />
			</output>
		</layer>
		<layer id="119" name="Gather_2553" type="Gather" version="opset1">
			<input>
				<port id="0" precision="I64">
					<dim>3</dim>
				</port>
				<port id="1" precision="I64">
					<dim>1</dim>
				</port>
				<port id="2" precision="I64" />
			</input>
			<output>
				<port id="3" precision="I64">
					<dim>1</dim>
				</port>
			</output>
		</layer>
		<layer id="120" name="Constant_2549" type="Const" version="opset1">
			<data element_type="i64" shape="1" offset="11098180" size="8" />
			<output>
				<port id="0" precision="I64">
					<dim>1</dim>
				</port>
			</output>
		</layer>
		<layer id="121" name="Constant_2548" type="Const" version="opset1">
			<data element_type="i64" shape="" offset="11098180" size="8" />
			<output>
				<port id="0" precision="I64" />
			</output>
		</layer>
		<layer id="122" name="Gather_2550" type="Gather" version="opset1">
			<input>
				<port id="0" precision="I64">
					<dim>3</dim>
				</port>
				<port id="1" precision="I64">
					<dim>1</dim>
				</port>
				<port id="2" precision="I64" />
			</input>
			<output>
				<port id="3" precision="I64">
					<dim>1</dim>
				</port>
			</output>
		</layer>
		<layer id="123" name="Broadcast_2554" type="Broadcast" version="opset3">
			<data mode="numpy" />
			<input>
				<port id="0" precision="I64">
					<dim>1</dim>
				</port>
				<port id="1" precision="I64">
					<dim>1</dim>
				</port>
			</input>
			<output>
				<port id="2" precision="I64">
					<dim>1</dim>
				</port>
			</output>
		</layer>
		<layer id="124" name="Constant_2563_compressed" type="Const" version="opset1">
			<data element_type="f16" shape="1, 1024, 512" offset="12673116" size="1048576" />
			<output>
				<port id="0" precision="FP16">
					<dim>1</dim>
					<dim>1024</dim>
					<dim>512</dim>
				</port>
			</output>
		</layer>
		<layer id="125" name="Constant_2563" type="Convert" version="opset1">
			<data destination_type="f32" />
			<rt_info>
				<attribute name="decompression" version="0" />
			</rt_info>
			<input>
				<port id="0" precision="FP16">
					<dim>1</dim>
					<dim>1024</dim>
					<dim>512</dim>
				</port>
			</input>
			<output>
				<port id="1" precision="FP32">
					<dim>1</dim>
					<dim>1024</dim>
					<dim>512</dim>
				</port>
			</output>
		</layer>
		<layer id="126" name="Constant_2565_compressed" type="Const" version="opset1">
			<data element_type="f16" shape="1, 1024, 256" offset="13721692" size="524288" />
			<output>
				<port id="0" precision="FP16">
					<dim>1</dim>
					<dim>1024</dim>
					<dim>256</dim>
				</port>
			</output>
		</layer>
		<layer id="127" name="Constant_2565" type="Convert" version="opset1">
			<data destination_type="f32" />
			<rt_info>
				<attribute name="decompression" version="0" />
			</rt_info>
			<input>
				<port id="0" precision="FP16">
					<dim>1</dim>
					<dim>1024</dim>
					<dim>256</dim>
				</port>
			</input>
			<output>
				<port id="1" precision="FP32">
					<dim>1</dim>
					<dim>1024</dim>
					<dim>256</dim>
				</port>
			</output>
		</layer>
		<layer id="128" name="Constant_2567_compressed" type="Const" version="opset1">
			<data element_type="f16" shape="1, 1024" offset="14245980" size="2048" />
			<output>
				<port id="0" precision="FP16">
					<dim>1</dim>
					<dim>1024</dim>
				</port>
			</output>
		</layer>
		<layer id="129" name="Constant_2567" type="Convert" version="opset1">
			<data destination_type="f32" />
			<rt_info>
				<attribute name="decompression" version="0" />
			</rt_info>
			<input>
				<port id="0" precision="FP16">
					<dim>1</dim>
					<dim>1024</dim>
				</port>
			</input>
			<output>
				<port id="1" precision="FP32">
					<dim>1</dim>
					<dim>1024</dim>
				</port>
			</output>
		</layer>
		<layer id="130" name="LSTMSequence_2568" type="LSTMSequence" version="opset5">
			<data direction="reverse" hidden_size="256" activations="sigmoid, tanh, tanh" activations_alpha="" activations_beta="" clip="0" />
			<input>
				<port id="0" precision="FP32">
					<dim>1</dim>
					<dim>30</dim>
					<dim>512</dim>
				</port>
				<port id="1" precision="FP32">
					<dim>1</dim>
					<dim>1</dim>
					<dim>256</dim>
				</port>
				<port id="2" precision="FP32">
					<dim>1</dim>
					<dim>1</dim>
					<dim>256</dim>
				</port>
				<port id="3" precision="I64">
					<dim>1</dim>
				</port>
				<port id="4" precision="FP32">
					<dim>1</dim>
					<dim>1024</dim>
					<dim>512</dim>
				</port>
				<port id="5" precision="FP32">
					<dim>1</dim>
					<dim>1024</dim>
					<dim>256</dim>
				</port>
				<port id="6" precision="FP32">
					<dim>1</dim>
					<dim>1024</dim>
				</port>
			</input>
			<output>
				<port id="7" precision="FP32">
					<dim>1</dim>
					<dim>1</dim>
					<dim>30</dim>
					<dim>256</dim>
				</port>
				<port id="8" precision="FP32">
					<dim>1</dim>
					<dim>1</dim>
					<dim>256</dim>
				</port>
				<port id="9" precision="FP32">
					<dim>1</dim>
					<dim>1</dim>
					<dim>256</dim>
				</port>
			</output>
		</layer>
		<layer id="131" name="Constant_2569" type="Const" version="opset1">
			<data element_type="i64" shape="1" offset="11098196" size="8" />
			<output>
				<port id="0" precision="I64">
					<dim>1</dim>
				</port>
			</output>
		</layer>
		<layer id="132" name="shadow/LSTMLayers/encoder/stack_bidirectional_rnn/cell_0/bidirectional_rnn/bw/bw/while/LoopCond/TensorIteratorCondition_/TensorIterator.0" type="Squeeze" version="opset1">
			<input>
				<port id="0" precision="FP32">
					<dim>1</dim>
					<dim>1</dim>
					<dim>30</dim>
					<dim>256</dim>
				</port>
				<port id="1" precision="I64">
					<dim>1</dim>
				</port>
			</input>
			<output>
				<port id="2" precision="FP32" names="shadow/LSTMLayers/encoder/stack_bidirectional_rnn/cell_0/ReverseV2:0,shadow/LSTMLayers/encoder/stack_bidirectional_rnn/cell_0/bidirectional_rnn/bw/bw/TensorArrayStack/TensorArrayGatherV3:0,shadow/LSTMLayers/encoder/stack_bidirectional_rnn/cell_0/bidirectional_rnn/bw/bw/transpose_1:0">
					<dim>1</dim>
					<dim>30</dim>
					<dim>256</dim>
				</port>
			</output>
		</layer>
		<layer id="133" name="shadow/LSTMLayers/encoder/stack_bidirectional_rnn/cell_0/concat" type="Concat" version="opset1">
			<data axis="2" />
			<input>
				<port id="0" precision="FP32">
					<dim>1</dim>
					<dim>30</dim>
					<dim>256</dim>
				</port>
				<port id="1" precision="FP32">
					<dim>1</dim>
					<dim>30</dim>
					<dim>256</dim>
				</port>
			</input>
			<output>
				<port id="2" precision="FP32" names="shadow/LSTMLayers/encoder/stack_bidirectional_rnn/cell_0/concat:0,shadow/LSTMLayers/encoder/stack_bidirectional_rnn/cell_1/bidirectional_rnn/bw/ReverseV2:0,shadow/LSTMLayers/encoder/stack_bidirectional_rnn/cell_1/bidirectional_rnn/bw/bw/transpose:0,shadow/LSTMLayers/encoder/stack_bidirectional_rnn/cell_1/bidirectional_rnn/fw/fw/transpose:0">
					<dim>1</dim>
					<dim>30</dim>
					<dim>512</dim>
				</port>
			</output>
		</layer>
		<layer id="134" name="Constant_1000_compressed" type="Const" version="opset1">
			<data element_type="f16" shape="1, 256" offset="11097668" size="512" />
			<output>
				<port id="0" precision="FP16">
					<dim>1</dim>
					<dim>256</dim>
				</port>
			</output>
		</layer>
		<layer id="135" name="Constant_1000" type="Convert" version="opset1">
			<data destination_type="f32" />
			<rt_info>
				<attribute name="decompression" version="0" />
			</rt_info>
			<input>
				<port id="0" precision="FP16">
					<dim>1</dim>
					<dim>256</dim>
				</port>
			</input>
			<output>
				<port id="1" precision="FP32" names="shadow/LSTMLayers/encoder/stack_bidirectional_rnn/cell_1/bidirectional_rnn/fw/fw/while/Enter_4:0">
					<dim>1</dim>
					<dim>256</dim>
				</port>
			</output>
		</layer>
		<layer id="136" name="ShapeOf_996" type="ShapeOf" version="opset3">
			<data output_type="i64" />
			<input>
				<port id="0" precision="FP32">
					<dim>1</dim>
					<dim>30</dim>
					<dim>512</dim>
				</port>
			</input>
			<output>
				<port id="1" precision="I64">
					<dim>3</dim>
				</port>
			</output>
		</layer>
		<layer id="137" name="Constant_998" type="Const" version="opset1">
			<data element_type="i64" shape="1" offset="11098180" size="8" />
			<output>
				<port id="0" precision="I64">
					<dim>1</dim>
				</port>
			</output>
		</layer>
		<layer id="138" name="Constant_997" type="Const" version="opset1">
			<data element_type="i64" shape="" offset="11098180" size="8" />
			<output>
				<port id="0" precision="I64" />
			</output>
		</layer>
		<layer id="139" name="Gather_999" type="Gather" version="opset8">
			<data batch_dims="0" />
			<input>
				<port id="0" precision="I64">
					<dim>3</dim>
				</port>
				<port id="1" precision="I64">
					<dim>1</dim>
				</port>
				<port id="2" precision="I64" />
			</input>
			<output>
				<port id="3" precision="I64">
					<dim>1</dim>
				</port>
			</output>
		</layer>
		<layer id="140" name="Constant_1006" type="Const" version="opset1">
			<data element_type="i64" shape="1" offset="11098188" size="8" />
			<output>
				<port id="0" precision="I64">
					<dim>1</dim>
				</port>
			</output>
		</layer>
		<layer id="141" name="Concat_1007" type="Concat" version="opset1">
			<data axis="0" />
			<input>
				<port id="0" precision="I64">
					<dim>1</dim>
				</port>
				<port id="1" precision="I64">
					<dim>1</dim>
				</port>
			</input>
			<output>
				<port id="2" precision="I64">
					<dim>2</dim>
				</port>
			</output>
		</layer>
		<layer id="142" name="Broadcast_1008" type="Broadcast" version="opset3">
			<data mode="numpy" />
			<input>
				<port id="0" precision="FP32">
					<dim>1</dim>
					<dim>256</dim>
				</port>
				<port id="1" precision="I64">
					<dim>2</dim>
				</port>
			</input>
			<output>
				<port id="2" precision="FP32">
					<dim>1</dim>
					<dim>256</dim>
				</port>
			</output>
		</layer>
		<layer id="143" name="Constant_2584" type="Const" version="opset1">
			<data element_type="i64" shape="1" offset="11098196" size="8" />
			<output>
				<port id="0" precision="I64">
					<dim>1</dim>
				</port>
			</output>
		</layer>
		<layer id="144" name="Unsqueeze_2585" type="Unsqueeze" version="opset1">
			<input>
				<port id="0" precision="FP32">
					<dim>1</dim>
					<dim>256</dim>
				</port>
				<port id="1" precision="I64">
					<dim>1</dim>
				</port>
			</input>
			<output>
				<port id="2" precision="FP32">
					<dim>1</dim>
					<dim>1</dim>
					<dim>256</dim>
				</port>
			</output>
		</layer>
		<layer id="145" name="Constant_1011_compressed" type="Const" version="opset1">
			<data element_type="f16" shape="1, 256" offset="11097668" size="512" />
			<output>
				<port id="0" precision="FP16">
					<dim>1</dim>
					<dim>256</dim>
				</port>
			</output>
		</layer>
		<layer id="146" name="Constant_1011" type="Convert" version="opset1">
			<data destination_type="f32" />
			<rt_info>
				<attribute name="decompression" version="0" />
			</rt_info>
			<input>
				<port id="0" precision="FP16">
					<dim>1</dim>
					<dim>256</dim>
				</port>
			</input>
			<output>
				<port id="1" precision="FP32" names="shadow/LSTMLayers/encoder/stack_bidirectional_rnn/cell_1/bidirectional_rnn/fw/fw/while/Enter_3:0">
					<dim>1</dim>
					<dim>256</dim>
				</port>
			</output>
		</layer>
		<layer id="147" name="Constant_1017" type="Const" version="opset1">
			<data element_type="i64" shape="1" offset="11098188" size="8" />
			<output>
				<port id="0" precision="I64">
					<dim>1</dim>
				</port>
			</output>
		</layer>
		<layer id="148" name="Concat_1018" type="Concat" version="opset1">
			<data axis="0" />
			<input>
				<port id="0" precision="I64">
					<dim>1</dim>
				</port>
				<port id="1" precision="I64">
					<dim>1</dim>
				</port>
			</input>
			<output>
				<port id="2" precision="I64">
					<dim>2</dim>
				</port>
			</output>
		</layer>
		<layer id="149" name="Broadcast_1019" type="Broadcast" version="opset3">
			<data mode="numpy" />
			<input>
				<port id="0" precision="FP32">
					<dim>1</dim>
					<dim>256</dim>
				</port>
				<port id="1" precision="I64">
					<dim>2</dim>
				</port>
			</input>
			<output>
				<port id="2" precision="FP32">
					<dim>1</dim>
					<dim>256</dim>
				</port>
			</output>
		</layer>
		<layer id="150" name="Unsqueeze_2586" type="Unsqueeze" version="opset1">
			<input>
				<port id="0" precision="FP32">
					<dim>1</dim>
					<dim>256</dim>
				</port>
				<port id="1" precision="I64">
					<dim>1</dim>
				</port>
			</input>
			<output>
				<port id="2" precision="FP32">
					<dim>1</dim>
					<dim>1</dim>
					<dim>256</dim>
				</port>
			</output>
		</layer>
		<layer id="151" name="ShapeOf_2587" type="ShapeOf" version="opset3">
			<data output_type="i64" />
			<input>
				<port id="0" precision="FP32">
					<dim>1</dim>
					<dim>30</dim>
					<dim>512</dim>
				</port>
			</input>
			<output>
				<port id="1" precision="I64">
					<dim>3</dim>
				</port>
			</output>
		</layer>
		<layer id="152" name="Constant_2592" type="Const" version="opset1">
			<data element_type="i64" shape="1" offset="11098196" size="8" />
			<output>
				<port id="0" precision="I64">
					<dim>1</dim>
				</port>
			</output>
		</layer>
		<layer id="153" name="Constant_2591" type="Const" version="opset1">
			<data element_type="i64" shape="" offset="11098180" size="8" />
			<output>
				<port id="0" precision="I64" />
			</output>
		</layer>
		<layer id="154" name="Gather_2593" type="Gather" version="opset1">
			<input>
				<port id="0" precision="I64">
					<dim>3</dim>
				</port>
				<port id="1" precision="I64">
					<dim>1</dim>
				</port>
				<port id="2" precision="I64" />
			</input>
			<output>
				<port id="3" precision="I64">
					<dim>1</dim>
				</port>
			</output>
		</layer>
		<layer id="155" name="Constant_2589" type="Const" version="opset1">
			<data element_type="i64" shape="1" offset="11098180" size="8" />
			<output>
				<port id="0" precision="I64">
					<dim>1</dim>
				</port>
			</output>
		</layer>
		<layer id="156" name="Constant_2588" type="Const" version="opset1">
			<data element_type="i64" shape="" offset="11098180" size="8" />
			<output>
				<port id="0" precision="I64" />
			</output>
		</layer>
		<layer id="157" name="Gather_2590" type="Gather" version="opset1">
			<input>
				<port id="0" precision="I64">
					<dim>3</dim>
				</port>
				<port id="1" precision="I64">
					<dim>1</dim>
				</port>
				<port id="2" precision="I64" />
			</input>
			<output>
				<port id="3" precision="I64">
					<dim>1</dim>
				</port>
			</output>
		</layer>
		<layer id="158" name="Broadcast_2594" type="Broadcast" version="opset3">
			<data mode="numpy" />
			<input>
				<port id="0" precision="I64">
					<dim>1</dim>
				</port>
				<port id="1" precision="I64">
					<dim>1</dim>
				</port>
			</input>
			<output>
				<port id="2" precision="I64">
					<dim>1</dim>
				</port>
			</output>
		</layer>
		<layer id="159" name="Constant_2603_compressed" type="Const" version="opset1">
			<data element_type="f16" shape="1, 1024, 512" offset="14248028" size="1048576" />
			<output>
				<port id="0" precision="FP16">
					<dim>1</dim>
					<dim>1024</dim>
					<dim>512</dim>
				</port>
			</output>
		</layer>
		<layer id="160" name="Constant_2603" type="Convert" version="opset1">
			<data destination_type="f32" />
			<rt_info>
				<attribute name="decompression" version="0" />
			</rt_info>
			<input>
				<port id="0" precision="FP16">
					<dim>1</dim>
					<dim>1024</dim>
					<dim>512</dim>
				</port>
			</input>
			<output>
				<port id="1" precision="FP32">
					<dim>1</dim>
					<dim>1024</dim>
					<dim>512</dim>
				</port>
			</output>
		</layer>
		<layer id="161" name="Constant_2605_compressed" type="Const" version="opset1">
			<data element_type="f16" shape="1, 1024, 256" offset="15296604" size="524288" />
			<output>
				<port id="0" precision="FP16">
					<dim>1</dim>
					<dim>1024</dim>
					<dim>256</dim>
				</port>
			</output>
		</layer>
		<layer id="162" name="Constant_2605" type="Convert" version="opset1">
			<data destination_type="f32" />
			<rt_info>
				<attribute name="decompression" version="0" />
			</rt_info>
			<input>
				<port id="0" precision="FP16">
					<dim>1</dim>
					<dim>1024</dim>
					<dim>256</dim>
				</port>
			</input>
			<output>
				<port id="1" precision="FP32">
					<dim>1</dim>
					<dim>1024</dim>
					<dim>256</dim>
				</port>
			</output>
		</layer>
		<layer id="163" name="Constant_2607_compressed" type="Const" version="opset1">
			<data element_type="f16" shape="1, 1024" offset="15820892" size="2048" />
			<output>
				<port id="0" precision="FP16">
					<dim>1</dim>
					<dim>1024</dim>
				</port>
			</output>
		</layer>
		<layer id="164" name="Constant_2607" type="Convert" version="opset1">
			<data destination_type="f32" />
			<rt_info>
				<attribute name="decompression" version="0" />
			</rt_info>
			<input>
				<port id="0" precision="FP16">
					<dim>1</dim>
					<dim>1024</dim>
				</port>
			</input>
			<output>
				<port id="1" precision="FP32">
					<dim>1</dim>
					<dim>1024</dim>
				</port>
			</output>
		</layer>
		<layer id="165" name="LSTMSequence_2608" type="LSTMSequence" version="opset5">
			<data direction="forward" hidden_size="256" activations="sigmoid, tanh, tanh" activations_alpha="" activations_beta="" clip="0" />
			<input>
				<port id="0" precision="FP32">
					<dim>1</dim>
					<dim>30</dim>
					<dim>512</dim>
				</port>
				<port id="1" precision="FP32">
					<dim>1</dim>
					<dim>1</dim>
					<dim>256</dim>
				</port>
				<port id="2" precision="FP32">
					<dim>1</dim>
					<dim>1</dim>
					<dim>256</dim>
				</port>
				<port id="3" precision="I64">
					<dim>1</dim>
				</port>
				<port id="4" precision="FP32">
					<dim>1</dim>
					<dim>1024</dim>
					<dim>512</dim>
				</port>
				<port id="5" precision="FP32">
					<dim>1</dim>
					<dim>1024</dim>
					<dim>256</dim>
				</port>
				<port id="6" precision="FP32">
					<dim>1</dim>
					<dim>1024</dim>
				</port>
			</input>
			<output>
				<port id="7" precision="FP32">
					<dim>1</dim>
					<dim>1</dim>
					<dim>30</dim>
					<dim>256</dim>
				</port>
				<port id="8" precision="FP32">
					<dim>1</dim>
					<dim>1</dim>
					<dim>256</dim>
				</port>
				<port id="9" precision="FP32">
					<dim>1</dim>
					<dim>1</dim>
					<dim>256</dim>
				</port>
			</output>
		</layer>
		<layer id="166" name="Constant_2609" type="Const" version="opset1">
			<data element_type="i64" shape="1" offset="11098196" size="8" />
			<output>
				<port id="0" precision="I64">
					<dim>1</dim>
				</port>
			</output>
		</layer>
		<layer id="167" name="shadow/LSTMLayers/encoder/stack_bidirectional_rnn/cell_1/bidirectional_rnn/fw/fw/while/LoopCond/TensorIteratorCondition_/TensorIterator.0" type="Squeeze" version="opset1">
			<input>
				<port id="0" precision="FP32">
					<dim>1</dim>
					<dim>1</dim>
					<dim>30</dim>
					<dim>256</dim>
				</port>
				<port id="1" precision="I64">
					<dim>1</dim>
				</port>
			</input>
			<output>
				<port id="2" precision="FP32" names="shadow/LSTMLayers/encoder/stack_bidirectional_rnn/cell_1/bidirectional_rnn/fw/fw/TensorArrayStack/TensorArrayGatherV3:0,shadow/LSTMLayers/encoder/stack_bidirectional_rnn/cell_1/bidirectional_rnn/fw/fw/transpose_1:0">
					<dim>1</dim>
					<dim>30</dim>
					<dim>256</dim>
				</port>
			</output>
		</layer>
		<layer id="168" name="Constant_1030_compressed" type="Const" version="opset1">
			<data element_type="f16" shape="1, 256" offset="11097668" size="512" />
			<output>
				<port id="0" precision="FP16">
					<dim>1</dim>
					<dim>256</dim>
				</port>
			</output>
		</layer>
		<layer id="169" name="Constant_1030" type="Convert" version="opset1">
			<data destination_type="f32" />
			<rt_info>
				<attribute name="decompression" version="0" />
			</rt_info>
			<input>
				<port id="0" precision="FP16">
					<dim>1</dim>
					<dim>256</dim>
				</port>
			</input>
			<output>
				<port id="1" precision="FP32" names="shadow/LSTMLayers/encoder/stack_bidirectional_rnn/cell_1/bidirectional_rnn/bw/bw/while/Enter_4:0">
					<dim>1</dim>
					<dim>256</dim>
				</port>
			</output>
		</layer>
		<layer id="170" name="Constant_1028" type="Const" version="opset1">
			<data element_type="i64" shape="1" offset="11098180" size="8" />
			<output>
				<port id="0" precision="I64">
					<dim>1</dim>
				</port>
			</output>
		</layer>
		<layer id="171" name="Constant_1027" type="Const" version="opset1">
			<data element_type="i64" shape="" offset="11098180" size="8" />
			<output>
				<port id="0" precision="I64" />
			</output>
		</layer>
		<layer id="172" name="Gather_1029" type="Gather" version="opset8">
			<data batch_dims="0" />
			<input>
				<port id="0" precision="I64">
					<dim>3</dim>
				</port>
				<port id="1" precision="I64">
					<dim>1</dim>
				</port>
				<port id="2" precision="I64" />
			</input>
			<output>
				<port id="3" precision="I64">
					<dim>1</dim>
				</port>
			</output>
		</layer>
		<layer id="173" name="Constant_1036" type="Const" version="opset1">
			<data element_type="i64" shape="1" offset="11098188" size="8" />
			<output>
				<port id="0" precision="I64">
					<dim>1</dim>
				</port>
			</output>
		</layer>
		<layer id="174" name="Concat_1037" type="Concat" version="opset1">
			<data axis="0" />
			<input>
				<port id="0" precision="I64">
					<dim>1</dim>
				</port>
				<port id="1" precision="I64">
					<dim>1</dim>
				</port>
			</input>
			<output>
				<port id="2" precision="I64">
					<dim>2</dim>
				</port>
			</output>
		</layer>
		<layer id="175" name="Broadcast_1038" type="Broadcast" version="opset3">
			<data mode="numpy" />
			<input>
				<port id="0" precision="FP32">
					<dim>1</dim>
					<dim>256</dim>
				</port>
				<port id="1" precision="I64">
					<dim>2</dim>
				</port>
			</input>
			<output>
				<port id="2" precision="FP32">
					<dim>1</dim>
					<dim>256</dim>
				</port>
			</output>
		</layer>
		<layer id="176" name="Constant_2624" type="Const" version="opset1">
			<data element_type="i64" shape="1" offset="11098196" size="8" />
			<output>
				<port id="0" precision="I64">
					<dim>1</dim>
				</port>
			</output>
		</layer>
		<layer id="177" name="Unsqueeze_2625" type="Unsqueeze" version="opset1">
			<input>
				<port id="0" precision="FP32">
					<dim>1</dim>
					<dim>256</dim>
				</port>
				<port id="1" precision="I64">
					<dim>1</dim>
				</port>
			</input>
			<output>
				<port id="2" precision="FP32">
					<dim>1</dim>
					<dim>1</dim>
					<dim>256</dim>
				</port>
			</output>
		</layer>
		<layer id="178" name="Constant_1041_compressed" type="Const" version="opset1">
			<data element_type="f16" shape="1, 256" offset="11097668" size="512" />
			<output>
				<port id="0" precision="FP16">
					<dim>1</dim>
					<dim>256</dim>
				</port>
			</output>
		</layer>
		<layer id="179" name="Constant_1041" type="Convert" version="opset1">
			<data destination_type="f32" />
			<rt_info>
				<attribute name="decompression" version="0" />
			</rt_info>
			<input>
				<port id="0" precision="FP16">
					<dim>1</dim>
					<dim>256</dim>
				</port>
			</input>
			<output>
				<port id="1" precision="FP32" names="shadow/LSTMLayers/encoder/stack_bidirectional_rnn/cell_1/bidirectional_rnn/bw/bw/while/Enter_3:0">
					<dim>1</dim>
					<dim>256</dim>
				</port>
			</output>
		</layer>
		<layer id="180" name="Constant_1047" type="Const" version="opset1">
			<data element_type="i64" shape="1" offset="11098188" size="8" />
			<output>
				<port id="0" precision="I64">
					<dim>1</dim>
				</port>
			</output>
		</layer>
		<layer id="181" name="Concat_1048" type="Concat" version="opset1">
			<data axis="0" />
			<input>
				<port id="0" precision="I64">
					<dim>1</dim>
				</port>
				<port id="1" precision="I64">
					<dim>1</dim>
				</port>
			</input>
			<output>
				<port id="2" precision="I64">
					<dim>2</dim>
				</port>
			</output>
		</layer>
		<layer id="182" name="Broadcast_1049" type="Broadcast" version="opset3">
			<data mode="numpy" />
			<input>
				<port id="0" precision="FP32">
					<dim>1</dim>
					<dim>256</dim>
				</port>
				<port id="1" precision="I64">
					<dim>2</dim>
				</port>
			</input>
			<output>
				<port id="2" precision="FP32">
					<dim>1</dim>
					<dim>256</dim>
				</port>
			</output>
		</layer>
		<layer id="183" name="Unsqueeze_2626" type="Unsqueeze" version="opset1">
			<input>
				<port id="0" precision="FP32">
					<dim>1</dim>
					<dim>256</dim>
				</port>
				<port id="1" precision="I64">
					<dim>1</dim>
				</port>
			</input>
			<output>
				<port id="2" precision="FP32">
					<dim>1</dim>
					<dim>1</dim>
					<dim>256</dim>
				</port>
			</output>
		</layer>
		<layer id="184" name="ShapeOf_2627" type="ShapeOf" version="opset3">
			<data output_type="i64" />
			<input>
				<port id="0" precision="FP32">
					<dim>1</dim>
					<dim>30</dim>
					<dim>512</dim>
				</port>
			</input>
			<output>
				<port id="1" precision="I64">
					<dim>3</dim>
				</port>
			</output>
		</layer>
		<layer id="185" name="Constant_2632" type="Const" version="opset1">
			<data element_type="i64" shape="1" offset="11098196" size="8" />
			<output>
				<port id="0" precision="I64">
					<dim>1</dim>
				</port>
			</output>
		</layer>
		<layer id="186" name="Constant_2631" type="Const" version="opset1">
			<data element_type="i64" shape="" offset="11098180" size="8" />
			<output>
				<port id="0" precision="I64" />
			</output>
		</layer>
		<layer id="187" name="Gather_2633" type="Gather" version="opset1">
			<input>
				<port id="0" precision="I64">
					<dim>3</dim>
				</port>
				<port id="1" precision="I64">
					<dim>1</dim>
				</port>
				<port id="2" precision="I64" />
			</input>
			<output>
				<port id="3" precision="I64">
					<dim>1</dim>
				</port>
			</output>
		</layer>
		<layer id="188" name="Constant_2629" type="Const" version="opset1">
			<data element_type="i64" shape="1" offset="11098180" size="8" />
			<output>
				<port id="0" precision="I64">
					<dim>1</dim>
				</port>
			</output>
		</layer>
		<layer id="189" name="Constant_2628" type="Const" version="opset1">
			<data element_type="i64" shape="" offset="11098180" size="8" />
			<output>
				<port id="0" precision="I64" />
			</output>
		</layer>
		<layer id="190" name="Gather_2630" type="Gather" version="opset1">
			<input>
				<port id="0" precision="I64">
					<dim>3</dim>
				</port>
				<port id="1" precision="I64">
					<dim>1</dim>
				</port>
				<port id="2" precision="I64" />
			</input>
			<output>
				<port id="3" precision="I64">
					<dim>1</dim>
				</port>
			</output>
		</layer>
		<layer id="191" name="Broadcast_2634" type="Broadcast" version="opset3">
			<data mode="numpy" />
			<input>
				<port id="0" precision="I64">
					<dim>1</dim>
				</port>
				<port id="1" precision="I64">
					<dim>1</dim>
				</port>
			</input>
			<output>
				<port id="2" precision="I64">
					<dim>1</dim>
				</port>
			</output>
		</layer>
		<layer id="192" name="Constant_2643_compressed" type="Const" version="opset1">
			<data element_type="f16" shape="1, 1024, 512" offset="15822940" size="1048576" />
			<output>
				<port id="0" precision="FP16">
					<dim>1</dim>
					<dim>1024</dim>
					<dim>512</dim>
				</port>
			</output>
		</layer>
		<layer id="193" name="Constant_2643" type="Convert" version="opset1">
			<data destination_type="f32" />
			<rt_info>
				<attribute name="decompression" version="0" />
			</rt_info>
			<input>
				<port id="0" precision="FP16">
					<dim>1</dim>
					<dim>1024</dim>
					<dim>512</dim>
				</port>
			</input>
			<output>
				<port id="1" precision="FP32">
					<dim>1</dim>
					<dim>1024</dim>
					<dim>512</dim>
				</port>
			</output>
		</layer>
		<layer id="194" name="Constant_2645_compressed" type="Const" version="opset1">
			<data element_type="f16" shape="1, 1024, 256" offset="16871516" size="524288" />
			<output>
				<port id="0" precision="FP16">
					<dim>1</dim>
					<dim>1024</dim>
					<dim>256</dim>
				</port>
			</output>
		</layer>
		<layer id="195" name="Constant_2645" type="Convert" version="opset1">
			<data destination_type="f32" />
			<rt_info>
				<attribute name="decompression" version="0" />
			</rt_info>
			<input>
				<port id="0" precision="FP16">
					<dim>1</dim>
					<dim>1024</dim>
					<dim>256</dim>
				</port>
			</input>
			<output>
				<port id="1" precision="FP32">
					<dim>1</dim>
					<dim>1024</dim>
					<dim>256</dim>
				</port>
			</output>
		</layer>
		<layer id="196" name="Constant_2647_compressed" type="Const" version="opset1">
			<data element_type="f16" shape="1, 1024" offset="17395804" size="2048" />
			<output>
				<port id="0" precision="FP16">
					<dim>1</dim>
					<dim>1024</dim>
				</port>
			</output>
		</layer>
		<layer id="197" name="Constant_2647" type="Convert" version="opset1">
			<data destination_type="f32" />
			<rt_info>
				<attribute name="decompression" version="0" />
			</rt_info>
			<input>
				<port id="0" precision="FP16">
					<dim>1</dim>
					<dim>1024</dim>
				</port>
			</input>
			<output>
				<port id="1" precision="FP32">
					<dim>1</dim>
					<dim>1024</dim>
				</port>
			</output>
		</layer>
		<layer id="198" name="LSTMSequence_2648" type="LSTMSequence" version="opset5">
			<data direction="reverse" hidden_size="256" activations="sigmoid, tanh, tanh" activations_alpha="" activations_beta="" clip="0" />
			<input>
				<port id="0" precision="FP32">
					<dim>1</dim>
					<dim>30</dim>
					<dim>512</dim>
				</port>
				<port id="1" precision="FP32">
					<dim>1</dim>
					<dim>1</dim>
					<dim>256</dim>
				</port>
				<port id="2" precision="FP32">
					<dim>1</dim>
					<dim>1</dim>
					<dim>256</dim>
				</port>
				<port id="3" precision="I64">
					<dim>1</dim>
				</port>
				<port id="4" precision="FP32">
					<dim>1</dim>
					<dim>1024</dim>
					<dim>512</dim>
				</port>
				<port id="5" precision="FP32">
					<dim>1</dim>
					<dim>1024</dim>
					<dim>256</dim>
				</port>
				<port id="6" precision="FP32">
					<dim>1</dim>
					<dim>1024</dim>
				</port>
			</input>
			<output>
				<port id="7" precision="FP32">
					<dim>1</dim>
					<dim>1</dim>
					<dim>30</dim>
					<dim>256</dim>
				</port>
				<port id="8" precision="FP32">
					<dim>1</dim>
					<dim>1</dim>
					<dim>256</dim>
				</port>
				<port id="9" precision="FP32">
					<dim>1</dim>
					<dim>1</dim>
					<dim>256</dim>
				</port>
			</output>
		</layer>
		<layer id="199" name="Constant_2649" type="Const" version="opset1">
			<data element_type="i64" shape="1" offset="11098196" size="8" />
			<output>
				<port id="0" precision="I64">
					<dim>1</dim>
				</port>
			</output>
		</layer>
		<layer id="200" name="shadow/LSTMLayers/encoder/stack_bidirectional_rnn/cell_1/bidirectional_rnn/bw/bw/while/LoopCond/TensorIteratorCondition_/TensorIterator.0" type="Squeeze" version="opset1">
			<input>
				<port id="0" precision="FP32">
					<dim>1</dim>
					<dim>1</dim>
					<dim>30</dim>
					<dim>256</dim>
				</port>
				<port id="1" precision="I64">
					<dim>1</dim>
				</port>
			</input>
			<output>
				<port id="2" precision="FP32" names="shadow/LSTMLayers/encoder/stack_bidirectional_rnn/cell_1/ReverseV2:0,shadow/LSTMLayers/encoder/stack_bidirectional_rnn/cell_1/bidirectional_rnn/bw/bw/TensorArrayStack/TensorArrayGatherV3:0,shadow/LSTMLayers/encoder/stack_bidirectional_rnn/cell_1/bidirectional_rnn/bw/bw/transpose_1:0">
					<dim>1</dim>
					<dim>30</dim>
					<dim>256</dim>
				</port>
			</output>
		</layer>
		<layer id="201" name="shadow/LSTMLayers/encoder/stack_bidirectional_rnn/cell_1/concat" type="Concat" version="opset1">
			<data axis="2" />
			<input>
				<port id="0" precision="FP32">
					<dim>1</dim>
					<dim>30</dim>
					<dim>256</dim>
				</port>
				<port id="1" precision="FP32">
					<dim>1</dim>
					<dim>30</dim>
					<dim>256</dim>
				</port>
			</input>
			<output>
				<port id="2" precision="FP32" names="shadow/LSTMLayers/decoder/stack_bidirectional_rnn/cell_0/bidirectional_rnn/bw/ReverseV2:0,shadow/LSTMLayers/decoder/stack_bidirectional_rnn/cell_0/bidirectional_rnn/bw/bw/transpose:0,shadow/LSTMLayers/decoder/stack_bidirectional_rnn/cell_0/bidirectional_rnn/fw/fw/transpose:0,shadow/LSTMLayers/encoder/dropout/Identity:0,shadow/LSTMLayers/encoder/stack_bidirectional_rnn/cell_1/concat:0">
					<dim>1</dim>
					<dim>30</dim>
					<dim>512</dim>
				</port>
			</output>
		</layer>
		<layer id="202" name="Constant_1060_compressed" type="Const" version="opset1">
			<data element_type="f16" shape="1, 256" offset="11097668" size="512" />
			<output>
				<port id="0" precision="FP16">
					<dim>1</dim>
					<dim>256</dim>
				</port>
			</output>
		</layer>
		<layer id="203" name="Constant_1060" type="Convert" version="opset1">
			<data destination_type="f32" />
			<rt_info>
				<attribute name="decompression" version="0" />
			</rt_info>
			<input>
				<port id="0" precision="FP16">
					<dim>1</dim>
					<dim>256</dim>
				</port>
			</input>
			<output>
				<port id="1" precision="FP32" names="shadow/LSTMLayers/decoder/stack_bidirectional_rnn/cell_0/bidirectional_rnn/fw/fw/while/Enter_4:0">
					<dim>1</dim>
					<dim>256</dim>
				</port>
			</output>
		</layer>
		<layer id="204" name="ShapeOf_1056" type="ShapeOf" version="opset3">
			<data output_type="i64" />
			<input>
				<port id="0" precision="FP32">
					<dim>1</dim>
					<dim>30</dim>
					<dim>512</dim>
				</port>
			</input>
			<output>
				<port id="1" precision="I64">
					<dim>3</dim>
				</port>
			</output>
		</layer>
		<layer id="205" name="Constant_1058" type="Const" version="opset1">
			<data element_type="i64" shape="1" offset="11098180" size="8" />
			<output>
				<port id="0" precision="I64">
					<dim>1</dim>
				</port>
			</output>
		</layer>
		<layer id="206" name="Constant_1057" type="Const" version="opset1">
			<data element_type="i64" shape="" offset="11098180" size="8" />
			<output>
				<port id="0" precision="I64" />
			</output>
		</layer>
		<layer id="207" name="Gather_1059" type="Gather" version="opset8">
			<data batch_dims="0" />
			<input>
				<port id="0" precision="I64">
					<dim>3</dim>
				</port>
				<port id="1" precision="I64">
					<dim>1</dim>
				</port>
				<port id="2" precision="I64" />
			</input>
			<output>
				<port id="3" precision="I64">
					<dim>1</dim>
				</port>
			</output>
		</layer>
		<layer id="208" name="Constant_1066" type="Const" version="opset1">
			<data element_type="i64" shape="1" offset="11098188" size="8" />
			<output>
				<port id="0" precision="I64">
					<dim>1</dim>
				</port>
			</output>
		</layer>
		<layer id="209" name="Concat_1067" type="Concat" version="opset1">
			<data axis="0" />
			<input>
				<port id="0" precision="I64">
					<dim>1</dim>
				</port>
				<port id="1" precision="I64">
					<dim>1</dim>
				</port>
			</input>
			<output>
				<port id="2" precision="I64">
					<dim>2</dim>
				</port>
			</output>
		</layer>
		<layer id="210" name="Broadcast_1068" type="Broadcast" version="opset3">
			<data mode="numpy" />
			<input>
				<port id="0" precision="FP32">
					<dim>1</dim>
					<dim>256</dim>
				</port>
				<port id="1" precision="I64">
					<dim>2</dim>
				</port>
			</input>
			<output>
				<port id="2" precision="FP32">
					<dim>1</dim>
					<dim>256</dim>
				</port>
			</output>
		</layer>
		<layer id="211" name="Constant_2664" type="Const" version="opset1">
			<data element_type="i64" shape="1" offset="11098196" size="8" />
			<output>
				<port id="0" precision="I64">
					<dim>1</dim>
				</port>
			</output>
		</layer>
		<layer id="212" name="Unsqueeze_2665" type="Unsqueeze" version="opset1">
			<input>
				<port id="0" precision="FP32">
					<dim>1</dim>
					<dim>256</dim>
				</port>
				<port id="1" precision="I64">
					<dim>1</dim>
				</port>
			</input>
			<output>
				<port id="2" precision="FP32">
					<dim>1</dim>
					<dim>1</dim>
					<dim>256</dim>
				</port>
			</output>
		</layer>
		<layer id="213" name="Constant_1071_compressed" type="Const" version="opset1">
			<data element_type="f16" shape="1, 256" offset="11097668" size="512" />
			<output>
				<port id="0" precision="FP16">
					<dim>1</dim>
					<dim>256</dim>
				</port>
			</output>
		</layer>
		<layer id="214" name="Constant_1071" type="Convert" version="opset1">
			<data destination_type="f32" />
			<rt_info>
				<attribute name="decompression" version="0" />
			</rt_info>
			<input>
				<port id="0" precision="FP16">
					<dim>1</dim>
					<dim>256</dim>
				</port>
			</input>
			<output>
				<port id="1" precision="FP32" names="shadow/LSTMLayers/decoder/stack_bidirectional_rnn/cell_0/bidirectional_rnn/fw/fw/while/Enter_3:0">
					<dim>1</dim>
					<dim>256</dim>
				</port>
			</output>
		</layer>
		<layer id="215" name="Constant_1077" type="Const" version="opset1">
			<data element_type="i64" shape="1" offset="11098188" size="8" />
			<output>
				<port id="0" precision="I64">
					<dim>1</dim>
				</port>
			</output>
		</layer>
		<layer id="216" name="Concat_1078" type="Concat" version="opset1">
			<data axis="0" />
			<input>
				<port id="0" precision="I64">
					<dim>1</dim>
				</port>
				<port id="1" precision="I64">
					<dim>1</dim>
				</port>
			</input>
			<output>
				<port id="2" precision="I64">
					<dim>2</dim>
				</port>
			</output>
		</layer>
		<layer id="217" name="Broadcast_1079" type="Broadcast" version="opset3">
			<data mode="numpy" />
			<input>
				<port id="0" precision="FP32">
					<dim>1</dim>
					<dim>256</dim>
				</port>
				<port id="1" precision="I64">
					<dim>2</dim>
				</port>
			</input>
			<output>
				<port id="2" precision="FP32">
					<dim>1</dim>
					<dim>256</dim>
				</port>
			</output>
		</layer>
		<layer id="218" name="Unsqueeze_2666" type="Unsqueeze" version="opset1">
			<input>
				<port id="0" precision="FP32">
					<dim>1</dim>
					<dim>256</dim>
				</port>
				<port id="1" precision="I64">
					<dim>1</dim>
				</port>
			</input>
			<output>
				<port id="2" precision="FP32">
					<dim>1</dim>
					<dim>1</dim>
					<dim>256</dim>
				</port>
			</output>
		</layer>
		<layer id="219" name="ShapeOf_2667" type="ShapeOf" version="opset3">
			<data output_type="i64" />
			<input>
				<port id="0" precision="FP32">
					<dim>1</dim>
					<dim>30</dim>
					<dim>512</dim>
				</port>
			</input>
			<output>
				<port id="1" precision="I64">
					<dim>3</dim>
				</port>
			</output>
		</layer>
		<layer id="220" name="Constant_2672" type="Const" version="opset1">
			<data element_type="i64" shape="1" offset="11098196" size="8" />
			<output>
				<port id="0" precision="I64">
					<dim>1</dim>
				</port>
			</output>
		</layer>
		<layer id="221" name="Constant_2671" type="Const" version="opset1">
			<data element_type="i64" shape="" offset="11098180" size="8" />
			<output>
				<port id="0" precision="I64" />
			</output>
		</layer>
		<layer id="222" name="Gather_2673" type="Gather" version="opset1">
			<input>
				<port id="0" precision="I64">
					<dim>3</dim>
				</port>
				<port id="1" precision="I64">
					<dim>1</dim>
				</port>
				<port id="2" precision="I64" />
			</input>
			<output>
				<port id="3" precision="I64">
					<dim>1</dim>
				</port>
			</output>
		</layer>
		<layer id="223" name="Constant_2669" type="Const" version="opset1">
			<data element_type="i64" shape="1" offset="11098180" size="8" />
			<output>
				<port id="0" precision="I64">
					<dim>1</dim>
				</port>
			</output>
		</layer>
		<layer id="224" name="Constant_2668" type="Const" version="opset1">
			<data element_type="i64" shape="" offset="11098180" size="8" />
			<output>
				<port id="0" precision="I64" />
			</output>
		</layer>
		<layer id="225" name="Gather_2670" type="Gather" version="opset1">
			<input>
				<port id="0" precision="I64">
					<dim>3</dim>
				</port>
				<port id="1" precision="I64">
					<dim>1</dim>
				</port>
				<port id="2" precision="I64" />
			</input>
			<output>
				<port id="3" precision="I64">
					<dim>1</dim>
				</port>
			</output>
		</layer>
		<layer id="226" name="Broadcast_2674" type="Broadcast" version="opset3">
			<data mode="numpy" />
			<input>
				<port id="0" precision="I64">
					<dim>1</dim>
				</port>
				<port id="1" precision="I64">
					<dim>1</dim>
				</port>
			</input>
			<output>
				<port id="2" precision="I64">
					<dim>1</dim>
				</port>
			</output>
		</layer>
		<layer id="227" name="Constant_2683_compressed" type="Const" version="opset1">
			<data element_type="f16" shape="1, 1024, 512" offset="17397852" size="1048576" />
			<output>
				<port id="0" precision="FP16">
					<dim>1</dim>
					<dim>1024</dim>
					<dim>512</dim>
				</port>
			</output>
		</layer>
		<layer id="228" name="Constant_2683" type="Convert" version="opset1">
			<data destination_type="f32" />
			<rt_info>
				<attribute name="decompression" version="0" />
			</rt_info>
			<input>
				<port id="0" precision="FP16">
					<dim>1</dim>
					<dim>1024</dim>
					<dim>512</dim>
				</port>
			</input>
			<output>
				<port id="1" precision="FP32">
					<dim>1</dim>
					<dim>1024</dim>
					<dim>512</dim>
				</port>
			</output>
		</layer>
		<layer id="229" name="Constant_2685_compressed" type="Const" version="opset1">
			<data element_type="f16" shape="1, 1024, 256" offset="18446428" size="524288" />
			<output>
				<port id="0" precision="FP16">
					<dim>1</dim>
					<dim>1024</dim>
					<dim>256</dim>
				</port>
			</output>
		</layer>
		<layer id="230" name="Constant_2685" type="Convert" version="opset1">
			<data destination_type="f32" />
			<rt_info>
				<attribute name="decompression" version="0" />
			</rt_info>
			<input>
				<port id="0" precision="FP16">
					<dim>1</dim>
					<dim>1024</dim>
					<dim>256</dim>
				</port>
			</input>
			<output>
				<port id="1" precision="FP32">
					<dim>1</dim>
					<dim>1024</dim>
					<dim>256</dim>
				</port>
			</output>
		</layer>
		<layer id="231" name="Constant_2687_compressed" type="Const" version="opset1">
			<data element_type="f16" shape="1, 1024" offset="18970716" size="2048" />
			<output>
				<port id="0" precision="FP16">
					<dim>1</dim>
					<dim>1024</dim>
				</port>
			</output>
		</layer>
		<layer id="232" name="Constant_2687" type="Convert" version="opset1">
			<data destination_type="f32" />
			<rt_info>
				<attribute name="decompression" version="0" />
			</rt_info>
			<input>
				<port id="0" precision="FP16">
					<dim>1</dim>
					<dim>1024</dim>
				</port>
			</input>
			<output>
				<port id="1" precision="FP32">
					<dim>1</dim>
					<dim>1024</dim>
				</port>
			</output>
		</layer>
		<layer id="233" name="LSTMSequence_2688" type="LSTMSequence" version="opset5">
			<data direction="forward" hidden_size="256" activations="sigmoid, tanh, tanh" activations_alpha="" activations_beta="" clip="0" />
			<input>
				<port id="0" precision="FP32">
					<dim>1</dim>
					<dim>30</dim>
					<dim>512</dim>
				</port>
				<port id="1" precision="FP32">
					<dim>1</dim>
					<dim>1</dim>
					<dim>256</dim>
				</port>
				<port id="2" precision="FP32">
					<dim>1</dim>
					<dim>1</dim>
					<dim>256</dim>
				</port>
				<port id="3" precision="I64">
					<dim>1</dim>
				</port>
				<port id="4" precision="FP32">
					<dim>1</dim>
					<dim>1024</dim>
					<dim>512</dim>
				</port>
				<port id="5" precision="FP32">
					<dim>1</dim>
					<dim>1024</dim>
					<dim>256</dim>
				</port>
				<port id="6" precision="FP32">
					<dim>1</dim>
					<dim>1024</dim>
				</port>
			</input>
			<output>
				<port id="7" precision="FP32">
					<dim>1</dim>
					<dim>1</dim>
					<dim>30</dim>
					<dim>256</dim>
				</port>
				<port id="8" precision="FP32">
					<dim>1</dim>
					<dim>1</dim>
					<dim>256</dim>
				</port>
				<port id="9" precision="FP32">
					<dim>1</dim>
					<dim>1</dim>
					<dim>256</dim>
				</port>
			</output>
		</layer>
		<layer id="234" name="Constant_2689" type="Const" version="opset1">
			<data element_type="i64" shape="1" offset="11098196" size="8" />
			<output>
				<port id="0" precision="I64">
					<dim>1</dim>
				</port>
			</output>
		</layer>
		<layer id="235" name="shadow/LSTMLayers/decoder/stack_bidirectional_rnn/cell_0/bidirectional_rnn/fw/fw/while/LoopCond/TensorIteratorCondition_/TensorIterator.0" type="Squeeze" version="opset1">
			<input>
				<port id="0" precision="FP32">
					<dim>1</dim>
					<dim>1</dim>
					<dim>30</dim>
					<dim>256</dim>
				</port>
				<port id="1" precision="I64">
					<dim>1</dim>
				</port>
			</input>
			<output>
				<port id="2" precision="FP32" names="shadow/LSTMLayers/decoder/stack_bidirectional_rnn/cell_0/bidirectional_rnn/fw/fw/TensorArrayStack/TensorArrayGatherV3:0,shadow/LSTMLayers/decoder/stack_bidirectional_rnn/cell_0/bidirectional_rnn/fw/fw/transpose_1:0">
					<dim>1</dim>
					<dim>30</dim>
					<dim>256</dim>
				</port>
			</output>
		</layer>
		<layer id="236" name="Constant_1090_compressed" type="Const" version="opset1">
			<data element_type="f16" shape="1, 256" offset="11097668" size="512" />
			<output>
				<port id="0" precision="FP16">
					<dim>1</dim>
					<dim>256</dim>
				</port>
			</output>
		</layer>
		<layer id="237" name="Constant_1090" type="Convert" version="opset1">
			<data destination_type="f32" />
			<rt_info>
				<attribute name="decompression" version="0" />
			</rt_info>
			<input>
				<port id="0" precision="FP16">
					<dim>1</dim>
					<dim>256</dim>
				</port>
			</input>
			<output>
				<port id="1" precision="FP32" names="shadow/LSTMLayers/decoder/stack_bidirectional_rnn/cell_0/bidirectional_rnn/bw/bw/while/Enter_4:0">
					<dim>1</dim>
					<dim>256</dim>
				</port>
			</output>
		</layer>
		<layer id="238" name="Constant_1088" type="Const" version="opset1">
			<data element_type="i64" shape="1" offset="11098180" size="8" />
			<output>
				<port id="0" precision="I64">
					<dim>1</dim>
				</port>
			</output>
		</layer>
		<layer id="239" name="Constant_1087" type="Const" version="opset1">
			<data element_type="i64" shape="" offset="11098180" size="8" />
			<output>
				<port id="0" precision="I64" />
			</output>
		</layer>
		<layer id="240" name="Gather_1089" type="Gather" version="opset8">
			<data batch_dims="0" />
			<input>
				<port id="0" precision="I64">
					<dim>3</dim>
				</port>
				<port id="1" precision="I64">
					<dim>1</dim>
				</port>
				<port id="2" precision="I64" />
			</input>
			<output>
				<port id="3" precision="I64">
					<dim>1</dim>
				</port>
			</output>
		</layer>
		<layer id="241" name="Constant_1096" type="Const" version="opset1">
			<data element_type="i64" shape="1" offset="11098188" size="8" />
			<output>
				<port id="0" precision="I64">
					<dim>1</dim>
				</port>
			</output>
		</layer>
		<layer id="242" name="Concat_1097" type="Concat" version="opset1">
			<data axis="0" />
			<input>
				<port id="0" precision="I64">
					<dim>1</dim>
				</port>
				<port id="1" precision="I64">
					<dim>1</dim>
				</port>
			</input>
			<output>
				<port id="2" precision="I64">
					<dim>2</dim>
				</port>
			</output>
		</layer>
		<layer id="243" name="Broadcast_1098" type="Broadcast" version="opset3">
			<data mode="numpy" />
			<input>
				<port id="0" precision="FP32">
					<dim>1</dim>
					<dim>256</dim>
				</port>
				<port id="1" precision="I64">
					<dim>2</dim>
				</port>
			</input>
			<output>
				<port id="2" precision="FP32">
					<dim>1</dim>
					<dim>256</dim>
				</port>
			</output>
		</layer>
		<layer id="244" name="Constant_2704" type="Const" version="opset1">
			<data element_type="i64" shape="1" offset="11098196" size="8" />
			<output>
				<port id="0" precision="I64">
					<dim>1</dim>
				</port>
			</output>
		</layer>
		<layer id="245" name="Unsqueeze_2705" type="Unsqueeze" version="opset1">
			<input>
				<port id="0" precision="FP32">
					<dim>1</dim>
					<dim>256</dim>
				</port>
				<port id="1" precision="I64">
					<dim>1</dim>
				</port>
			</input>
			<output>
				<port id="2" precision="FP32">
					<dim>1</dim>
					<dim>1</dim>
					<dim>256</dim>
				</port>
			</output>
		</layer>
		<layer id="246" name="Constant_1101_compressed" type="Const" version="opset1">
			<data element_type="f16" shape="1, 256" offset="11097668" size="512" />
			<output>
				<port id="0" precision="FP16">
					<dim>1</dim>
					<dim>256</dim>
				</port>
			</output>
		</layer>
		<layer id="247" name="Constant_1101" type="Convert" version="opset1">
			<data destination_type="f32" />
			<rt_info>
				<attribute name="decompression" version="0" />
			</rt_info>
			<input>
				<port id="0" precision="FP16">
					<dim>1</dim>
					<dim>256</dim>
				</port>
			</input>
			<output>
				<port id="1" precision="FP32" names="shadow/LSTMLayers/decoder/stack_bidirectional_rnn/cell_0/bidirectional_rnn/bw/bw/while/Enter_3:0">
					<dim>1</dim>
					<dim>256</dim>
				</port>
			</output>
		</layer>
		<layer id="248" name="Constant_1107" type="Const" version="opset1">
			<data element_type="i64" shape="1" offset="11098188" size="8" />
			<output>
				<port id="0" precision="I64">
					<dim>1</dim>
				</port>
			</output>
		</layer>
		<layer id="249" name="Concat_1108" type="Concat" version="opset1">
			<data axis="0" />
			<input>
				<port id="0" precision="I64">
					<dim>1</dim>
				</port>
				<port id="1" precision="I64">
					<dim>1</dim>
				</port>
			</input>
			<output>
				<port id="2" precision="I64">
					<dim>2</dim>
				</port>
			</output>
		</layer>
		<layer id="250" name="Broadcast_1109" type="Broadcast" version="opset3">
			<data mode="numpy" />
			<input>
				<port id="0" precision="FP32">
					<dim>1</dim>
					<dim>256</dim>
				</port>
				<port id="1" precision="I64">
					<dim>2</dim>
				</port>
			</input>
			<output>
				<port id="2" precision="FP32">
					<dim>1</dim>
					<dim>256</dim>
				</port>
			</output>
		</layer>
		<layer id="251" name="Unsqueeze_2706" type="Unsqueeze" version="opset1">
			<input>
				<port id="0" precision="FP32">
					<dim>1</dim>
					<dim>256</dim>
				</port>
				<port id="1" precision="I64">
					<dim>1</dim>
				</port>
			</input>
			<output>
				<port id="2" precision="FP32">
					<dim>1</dim>
					<dim>1</dim>
					<dim>256</dim>
				</port>
			</output>
		</layer>
		<layer id="252" name="ShapeOf_2707" type="ShapeOf" version="opset3">
			<data output_type="i64" />
			<input>
				<port id="0" precision="FP32">
					<dim>1</dim>
					<dim>30</dim>
					<dim>512</dim>
				</port>
			</input>
			<output>
				<port id="1" precision="I64">
					<dim>3</dim>
				</port>
			</output>
		</layer>
		<layer id="253" name="Constant_2712" type="Const" version="opset1">
			<data element_type="i64" shape="1" offset="11098196" size="8" />
			<output>
				<port id="0" precision="I64">
					<dim>1</dim>
				</port>
			</output>
		</layer>
		<layer id="254" name="Constant_2711" type="Const" version="opset1">
			<data element_type="i64" shape="" offset="11098180" size="8" />
			<output>
				<port id="0" precision="I64" />
			</output>
		</layer>
		<layer id="255" name="Gather_2713" type="Gather" version="opset1">
			<input>
				<port id="0" precision="I64">
					<dim>3</dim>
				</port>
				<port id="1" precision="I64">
					<dim>1</dim>
				</port>
				<port id="2" precision="I64" />
			</input>
			<output>
				<port id="3" precision="I64">
					<dim>1</dim>
				</port>
			</output>
		</layer>
		<layer id="256" name="Constant_2709" type="Const" version="opset1">
			<data element_type="i64" shape="1" offset="11098180" size="8" />
			<output>
				<port id="0" precision="I64">
					<dim>1</dim>
				</port>
			</output>
		</layer>
		<layer id="257" name="Constant_2708" type="Const" version="opset1">
			<data element_type="i64" shape="" offset="11098180" size="8" />
			<output>
				<port id="0" precision="I64" />
			</output>
		</layer>
		<layer id="258" name="Gather_2710" type="Gather" version="opset1">
			<input>
				<port id="0" precision="I64">
					<dim>3</dim>
				</port>
				<port id="1" precision="I64">
					<dim>1</dim>
				</port>
				<port id="2" precision="I64" />
			</input>
			<output>
				<port id="3" precision="I64">
					<dim>1</dim>
				</port>
			</output>
		</layer>
		<layer id="259" name="Broadcast_2714" type="Broadcast" version="opset3">
			<data mode="numpy" />
			<input>
				<port id="0" precision="I64">
					<dim>1</dim>
				</port>
				<port id="1" precision="I64">
					<dim>1</dim>
				</port>
			</input>
			<output>
				<port id="2" precision="I64">
					<dim>1</dim>
				</port>
			</output>
		</layer>
		<layer id="260" name="Constant_2723_compressed" type="Const" version="opset1">
			<data element_type="f16" shape="1, 1024, 512" offset="18972764" size="1048576" />
			<output>
				<port id="0" precision="FP16">
					<dim>1</dim>
					<dim>1024</dim>
					<dim>512</dim>
				</port>
			</output>
		</layer>
		<layer id="261" name="Constant_2723" type="Convert" version="opset1">
			<data destination_type="f32" />
			<rt_info>
				<attribute name="decompression" version="0" />
			</rt_info>
			<input>
				<port id="0" precision="FP16">
					<dim>1</dim>
					<dim>1024</dim>
					<dim>512</dim>
				</port>
			</input>
			<output>
				<port id="1" precision="FP32">
					<dim>1</dim>
					<dim>1024</dim>
					<dim>512</dim>
				</port>
			</output>
		</layer>
		<layer id="262" name="Constant_2725_compressed" type="Const" version="opset1">
			<data element_type="f16" shape="1, 1024, 256" offset="20021340" size="524288" />
			<output>
				<port id="0" precision="FP16">
					<dim>1</dim>
					<dim>1024</dim>
					<dim>256</dim>
				</port>
			</output>
		</layer>
		<layer id="263" name="Constant_2725" type="Convert" version="opset1">
			<data destination_type="f32" />
			<rt_info>
				<attribute name="decompression" version="0" />
			</rt_info>
			<input>
				<port id="0" precision="FP16">
					<dim>1</dim>
					<dim>1024</dim>
					<dim>256</dim>
				</port>
			</input>
			<output>
				<port id="1" precision="FP32">
					<dim>1</dim>
					<dim>1024</dim>
					<dim>256</dim>
				</port>
			</output>
		</layer>
		<layer id="264" name="Constant_2727_compressed" type="Const" version="opset1">
			<data element_type="f16" shape="1, 1024" offset="20545628" size="2048" />
			<output>
				<port id="0" precision="FP16">
					<dim>1</dim>
					<dim>1024</dim>
				</port>
			</output>
		</layer>
		<layer id="265" name="Constant_2727" type="Convert" version="opset1">
			<data destination_type="f32" />
			<rt_info>
				<attribute name="decompression" version="0" />
			</rt_info>
			<input>
				<port id="0" precision="FP16">
					<dim>1</dim>
					<dim>1024</dim>
				</port>
			</input>
			<output>
				<port id="1" precision="FP32">
					<dim>1</dim>
					<dim>1024</dim>
				</port>
			</output>
		</layer>
		<layer id="266" name="LSTMSequence_2728" type="LSTMSequence" version="opset5">
			<data direction="reverse" hidden_size="256" activations="sigmoid, tanh, tanh" activations_alpha="" activations_beta="" clip="0" />
			<input>
				<port id="0" precision="FP32">
					<dim>1</dim>
					<dim>30</dim>
					<dim>512</dim>
				</port>
				<port id="1" precision="FP32">
					<dim>1</dim>
					<dim>1</dim>
					<dim>256</dim>
				</port>
				<port id="2" precision="FP32">
					<dim>1</dim>
					<dim>1</dim>
					<dim>256</dim>
				</port>
				<port id="3" precision="I64">
					<dim>1</dim>
				</port>
				<port id="4" precision="FP32">
					<dim>1</dim>
					<dim>1024</dim>
					<dim>512</dim>
				</port>
				<port id="5" precision="FP32">
					<dim>1</dim>
					<dim>1024</dim>
					<dim>256</dim>
				</port>
				<port id="6" precision="FP32">
					<dim>1</dim>
					<dim>1024</dim>
				</port>
			</input>
			<output>
				<port id="7" precision="FP32">
					<dim>1</dim>
					<dim>1</dim>
					<dim>30</dim>
					<dim>256</dim>
				</port>
				<port id="8" precision="FP32">
					<dim>1</dim>
					<dim>1</dim>
					<dim>256</dim>
				</port>
				<port id="9" precision="FP32">
					<dim>1</dim>
					<dim>1</dim>
					<dim>256</dim>
				</port>
			</output>
		</layer>
		<layer id="267" name="Constant_2729" type="Const" version="opset1">
			<data element_type="i64" shape="1" offset="11098196" size="8" />
			<output>
				<port id="0" precision="I64">
					<dim>1</dim>
				</port>
			</output>
		</layer>
		<layer id="268" name="shadow/LSTMLayers/decoder/stack_bidirectional_rnn/cell_0/bidirectional_rnn/bw/bw/while/LoopCond/TensorIteratorCondition_/TensorIterator.0" type="Squeeze" version="opset1">
			<input>
				<port id="0" precision="FP32">
					<dim>1</dim>
					<dim>1</dim>
					<dim>30</dim>
					<dim>256</dim>
				</port>
				<port id="1" precision="I64">
					<dim>1</dim>
				</port>
			</input>
			<output>
				<port id="2" precision="FP32" names="shadow/LSTMLayers/decoder/stack_bidirectional_rnn/cell_0/ReverseV2:0,shadow/LSTMLayers/decoder/stack_bidirectional_rnn/cell_0/bidirectional_rnn/bw/bw/TensorArrayStack/TensorArrayGatherV3:0,shadow/LSTMLayers/decoder/stack_bidirectional_rnn/cell_0/bidirectional_rnn/bw/bw/transpose_1:0">
					<dim>1</dim>
					<dim>30</dim>
					<dim>256</dim>
				</port>
			</output>
		</layer>
		<layer id="269" name="shadow/LSTMLayers/decoder/stack_bidirectional_rnn/cell_0/concat" type="Concat" version="opset1">
			<data axis="2" />
			<input>
				<port id="0" precision="FP32">
					<dim>1</dim>
					<dim>30</dim>
					<dim>256</dim>
				</port>
				<port id="1" precision="FP32">
					<dim>1</dim>
					<dim>30</dim>
					<dim>256</dim>
				</port>
			</input>
			<output>
				<port id="2" precision="FP32" names="shadow/LSTMLayers/decoder/stack_bidirectional_rnn/cell_0/concat:0,shadow/LSTMLayers/decoder/stack_bidirectional_rnn/cell_1/bidirectional_rnn/bw/ReverseV2:0,shadow/LSTMLayers/decoder/stack_bidirectional_rnn/cell_1/bidirectional_rnn/bw/bw/transpose:0,shadow/LSTMLayers/decoder/stack_bidirectional_rnn/cell_1/bidirectional_rnn/fw/fw/transpose:0">
					<dim>1</dim>
					<dim>30</dim>
					<dim>512</dim>
				</port>
			</output>
		</layer>
		<layer id="270" name="Constant_1120_compressed" type="Const" version="opset1">
			<data element_type="f16" shape="1, 256" offset="11097668" size="512" />
			<output>
				<port id="0" precision="FP16">
					<dim>1</dim>
					<dim>256</dim>
				</port>
			</output>
		</layer>
		<layer id="271" name="Constant_1120" type="Convert" version="opset1">
			<data destination_type="f32" />
			<rt_info>
				<attribute name="decompression" version="0" />
			</rt_info>
			<input>
				<port id="0" precision="FP16">
					<dim>1</dim>
					<dim>256</dim>
				</port>
			</input>
			<output>
				<port id="1" precision="FP32" names="shadow/LSTMLayers/decoder/stack_bidirectional_rnn/cell_1/bidirectional_rnn/fw/fw/while/Enter_4:0">
					<dim>1</dim>
					<dim>256</dim>
				</port>
			</output>
		</layer>
		<layer id="272" name="ShapeOf_1116" type="ShapeOf" version="opset3">
			<data output_type="i64" />
			<input>
				<port id="0" precision="FP32">
					<dim>1</dim>
					<dim>30</dim>
					<dim>512</dim>
				</port>
			</input>
			<output>
				<port id="1" precision="I64">
					<dim>3</dim>
				</port>
			</output>
		</layer>
		<layer id="273" name="Constant_1118" type="Const" version="opset1">
			<data element_type="i64" shape="1" offset="11098180" size="8" />
			<output>
				<port id="0" precision="I64">
					<dim>1</dim>
				</port>
			</output>
		</layer>
		<layer id="274" name="Constant_1117" type="Const" version="opset1">
			<data element_type="i64" shape="" offset="11098180" size="8" />
			<output>
				<port id="0" precision="I64" />
			</output>
		</layer>
		<layer id="275" name="Gather_1119" type="Gather" version="opset8">
			<data batch_dims="0" />
			<input>
				<port id="0" precision="I64">
					<dim>3</dim>
				</port>
				<port id="1" precision="I64">
					<dim>1</dim>
				</port>
				<port id="2" precision="I64" />
			</input>
			<output>
				<port id="3" precision="I64">
					<dim>1</dim>
				</port>
			</output>
		</layer>
		<layer id="276" name="Constant_1126" type="Const" version="opset1">
			<data element_type="i64" shape="1" offset="11098188" size="8" />
			<output>
				<port id="0" precision="I64">
					<dim>1</dim>
				</port>
			</output>
		</layer>
		<layer id="277" name="Concat_1127" type="Concat" version="opset1">
			<data axis="0" />
			<input>
				<port id="0" precision="I64">
					<dim>1</dim>
				</port>
				<port id="1" precision="I64">
					<dim>1</dim>
				</port>
			</input>
			<output>
				<port id="2" precision="I64">
					<dim>2</dim>
				</port>
			</output>
		</layer>
		<layer id="278" name="Broadcast_1128" type="Broadcast" version="opset3">
			<data mode="numpy" />
			<input>
				<port id="0" precision="FP32">
					<dim>1</dim>
					<dim>256</dim>
				</port>
				<port id="1" precision="I64">
					<dim>2</dim>
				</port>
			</input>
			<output>
				<port id="2" precision="FP32">
					<dim>1</dim>
					<dim>256</dim>
				</port>
			</output>
		</layer>
		<layer id="279" name="Constant_2744" type="Const" version="opset1">
			<data element_type="i64" shape="1" offset="11098196" size="8" />
			<output>
				<port id="0" precision="I64">
					<dim>1</dim>
				</port>
			</output>
		</layer>
		<layer id="280" name="Unsqueeze_2745" type="Unsqueeze" version="opset1">
			<input>
				<port id="0" precision="FP32">
					<dim>1</dim>
					<dim>256</dim>
				</port>
				<port id="1" precision="I64">
					<dim>1</dim>
				</port>
			</input>
			<output>
				<port id="2" precision="FP32">
					<dim>1</dim>
					<dim>1</dim>
					<dim>256</dim>
				</port>
			</output>
		</layer>
		<layer id="281" name="Constant_1131_compressed" type="Const" version="opset1">
			<data element_type="f16" shape="1, 256" offset="11097668" size="512" />
			<output>
				<port id="0" precision="FP16">
					<dim>1</dim>
					<dim>256</dim>
				</port>
			</output>
		</layer>
		<layer id="282" name="Constant_1131" type="Convert" version="opset1">
			<data destination_type="f32" />
			<rt_info>
				<attribute name="decompression" version="0" />
			</rt_info>
			<input>
				<port id="0" precision="FP16">
					<dim>1</dim>
					<dim>256</dim>
				</port>
			</input>
			<output>
				<port id="1" precision="FP32" names="shadow/LSTMLayers/decoder/stack_bidirectional_rnn/cell_1/bidirectional_rnn/fw/fw/while/Enter_3:0">
					<dim>1</dim>
					<dim>256</dim>
				</port>
			</output>
		</layer>
		<layer id="283" name="Constant_1137" type="Const" version="opset1">
			<data element_type="i64" shape="1" offset="11098188" size="8" />
			<output>
				<port id="0" precision="I64">
					<dim>1</dim>
				</port>
			</output>
		</layer>
		<layer id="284" name="Concat_1138" type="Concat" version="opset1">
			<data axis="0" />
			<input>
				<port id="0" precision="I64">
					<dim>1</dim>
				</port>
				<port id="1" precision="I64">
					<dim>1</dim>
				</port>
			</input>
			<output>
				<port id="2" precision="I64">
					<dim>2</dim>
				</port>
			</output>
		</layer>
		<layer id="285" name="Broadcast_1139" type="Broadcast" version="opset3">
			<data mode="numpy" />
			<input>
				<port id="0" precision="FP32">
					<dim>1</dim>
					<dim>256</dim>
				</port>
				<port id="1" precision="I64">
					<dim>2</dim>
				</port>
			</input>
			<output>
				<port id="2" precision="FP32">
					<dim>1</dim>
					<dim>256</dim>
				</port>
			</output>
		</layer>
		<layer id="286" name="Unsqueeze_2746" type="Unsqueeze" version="opset1">
			<input>
				<port id="0" precision="FP32">
					<dim>1</dim>
					<dim>256</dim>
				</port>
				<port id="1" precision="I64">
					<dim>1</dim>
				</port>
			</input>
			<output>
				<port id="2" precision="FP32">
					<dim>1</dim>
					<dim>1</dim>
					<dim>256</dim>
				</port>
			</output>
		</layer>
		<layer id="287" name="ShapeOf_2747" type="ShapeOf" version="opset3">
			<data output_type="i64" />
			<input>
				<port id="0" precision="FP32">
					<dim>1</dim>
					<dim>30</dim>
					<dim>512</dim>
				</port>
			</input>
			<output>
				<port id="1" precision="I64">
					<dim>3</dim>
				</port>
			</output>
		</layer>
		<layer id="288" name="Constant_2752" type="Const" version="opset1">
			<data element_type="i64" shape="1" offset="11098196" size="8" />
			<output>
				<port id="0" precision="I64">
					<dim>1</dim>
				</port>
			</output>
		</layer>
		<layer id="289" name="Constant_2751" type="Const" version="opset1">
			<data element_type="i64" shape="" offset="11098180" size="8" />
			<output>
				<port id="0" precision="I64" />
			</output>
		</layer>
		<layer id="290" name="Gather_2753" type="Gather" version="opset1">
			<input>
				<port id="0" precision="I64">
					<dim>3</dim>
				</port>
				<port id="1" precision="I64">
					<dim>1</dim>
				</port>
				<port id="2" precision="I64" />
			</input>
			<output>
				<port id="3" precision="I64">
					<dim>1</dim>
				</port>
			</output>
		</layer>
		<layer id="291" name="Constant_2749" type="Const" version="opset1">
			<data element_type="i64" shape="1" offset="11098180" size="8" />
			<output>
				<port id="0" precision="I64">
					<dim>1</dim>
				</port>
			</output>
		</layer>
		<layer id="292" name="Constant_2748" type="Const" version="opset1">
			<data element_type="i64" shape="" offset="11098180" size="8" />
			<output>
				<port id="0" precision="I64" />
			</output>
		</layer>
		<layer id="293" name="Gather_2750" type="Gather" version="opset1">
			<input>
				<port id="0" precision="I64">
					<dim>3</dim>
				</port>
				<port id="1" precision="I64">
					<dim>1</dim>
				</port>
				<port id="2" precision="I64" />
			</input>
			<output>
				<port id="3" precision="I64">
					<dim>1</dim>
				</port>
			</output>
		</layer>
		<layer id="294" name="Broadcast_2754" type="Broadcast" version="opset3">
			<data mode="numpy" />
			<input>
				<port id="0" precision="I64">
					<dim>1</dim>
				</port>
				<port id="1" precision="I64">
					<dim>1</dim>
				</port>
			</input>
			<output>
				<port id="2" precision="I64">
					<dim>1</dim>
				</port>
			</output>
		</layer>
		<layer id="295" name="Constant_2763_compressed" type="Const" version="opset1">
			<data element_type="f16" shape="1, 1024, 512" offset="20547676" size="1048576" />
			<output>
				<port id="0" precision="FP16">
					<dim>1</dim>
					<dim>1024</dim>
					<dim>512</dim>
				</port>
			</output>
		</layer>
		<layer id="296" name="Constant_2763" type="Convert" version="opset1">
			<data destination_type="f32" />
			<rt_info>
				<attribute name="decompression" version="0" />
			</rt_info>
			<input>
				<port id="0" precision="FP16">
					<dim>1</dim>
					<dim>1024</dim>
					<dim>512</dim>
				</port>
			</input>
			<output>
				<port id="1" precision="FP32">
					<dim>1</dim>
					<dim>1024</dim>
					<dim>512</dim>
				</port>
			</output>
		</layer>
		<layer id="297" name="Constant_2765_compressed" type="Const" version="opset1">
			<data element_type="f16" shape="1, 1024, 256" offset="21596252" size="524288" />
			<output>
				<port id="0" precision="FP16">
					<dim>1</dim>
					<dim>1024</dim>
					<dim>256</dim>
				</port>
			</output>
		</layer>
		<layer id="298" name="Constant_2765" type="Convert" version="opset1">
			<data destination_type="f32" />
			<rt_info>
				<attribute name="decompression" version="0" />
			</rt_info>
			<input>
				<port id="0" precision="FP16">
					<dim>1</dim>
					<dim>1024</dim>
					<dim>256</dim>
				</port>
			</input>
			<output>
				<port id="1" precision="FP32">
					<dim>1</dim>
					<dim>1024</dim>
					<dim>256</dim>
				</port>
			</output>
		</layer>
		<layer id="299" name="Constant_2767_compressed" type="Const" version="opset1">
			<data element_type="f16" shape="1, 1024" offset="22120540" size="2048" />
			<output>
				<port id="0" precision="FP16">
					<dim>1</dim>
					<dim>1024</dim>
				</port>
			</output>
		</layer>
		<layer id="300" name="Constant_2767" type="Convert" version="opset1">
			<data destination_type="f32" />
			<rt_info>
				<attribute name="decompression" version="0" />
			</rt_info>
			<input>
				<port id="0" precision="FP16">
					<dim>1</dim>
					<dim>1024</dim>
				</port>
			</input>
			<output>
				<port id="1" precision="FP32">
					<dim>1</dim>
					<dim>1024</dim>
				</port>
			</output>
		</layer>
		<layer id="301" name="LSTMSequence_2768" type="LSTMSequence" version="opset5">
			<data direction="forward" hidden_size="256" activations="sigmoid, tanh, tanh" activations_alpha="" activations_beta="" clip="0" />
			<input>
				<port id="0" precision="FP32">
					<dim>1</dim>
					<dim>30</dim>
					<dim>512</dim>
				</port>
				<port id="1" precision="FP32">
					<dim>1</dim>
					<dim>1</dim>
					<dim>256</dim>
				</port>
				<port id="2" precision="FP32">
					<dim>1</dim>
					<dim>1</dim>
					<dim>256</dim>
				</port>
				<port id="3" precision="I64">
					<dim>1</dim>
				</port>
				<port id="4" precision="FP32">
					<dim>1</dim>
					<dim>1024</dim>
					<dim>512</dim>
				</port>
				<port id="5" precision="FP32">
					<dim>1</dim>
					<dim>1024</dim>
					<dim>256</dim>
				</port>
				<port id="6" precision="FP32">
					<dim>1</dim>
					<dim>1024</dim>
				</port>
			</input>
			<output>
				<port id="7" precision="FP32">
					<dim>1</dim>
					<dim>1</dim>
					<dim>30</dim>
					<dim>256</dim>
				</port>
				<port id="8" precision="FP32">
					<dim>1</dim>
					<dim>1</dim>
					<dim>256</dim>
				</port>
				<port id="9" precision="FP32">
					<dim>1</dim>
					<dim>1</dim>
					<dim>256</dim>
				</port>
			</output>
		</layer>
		<layer id="302" name="Constant_2769" type="Const" version="opset1">
			<data element_type="i64" shape="1" offset="11098196" size="8" />
			<output>
				<port id="0" precision="I64">
					<dim>1</dim>
				</port>
			</output>
		</layer>
		<layer id="303" name="shadow/LSTMLayers/decoder/stack_bidirectional_rnn/cell_1/bidirectional_rnn/fw/fw/while/LoopCond/TensorIteratorCondition_/TensorIterator.0" type="Squeeze" version="opset1">
			<input>
				<port id="0" precision="FP32">
					<dim>1</dim>
					<dim>1</dim>
					<dim>30</dim>
					<dim>256</dim>
				</port>
				<port id="1" precision="I64">
					<dim>1</dim>
				</port>
			</input>
			<output>
				<port id="2" precision="FP32" names="shadow/LSTMLayers/decoder/stack_bidirectional_rnn/cell_1/bidirectional_rnn/fw/fw/TensorArrayStack/TensorArrayGatherV3:0,shadow/LSTMLayers/decoder/stack_bidirectional_rnn/cell_1/bidirectional_rnn/fw/fw/transpose_1:0">
					<dim>1</dim>
					<dim>30</dim>
					<dim>256</dim>
				</port>
			</output>
		</layer>
		<layer id="304" name="Constant_1150_compressed" type="Const" version="opset1">
			<data element_type="f16" shape="1, 256" offset="11097668" size="512" />
			<output>
				<port id="0" precision="FP16">
					<dim>1</dim>
					<dim>256</dim>
				</port>
			</output>
		</layer>
		<layer id="305" name="Constant_1150" type="Convert" version="opset1">
			<data destination_type="f32" />
			<rt_info>
				<attribute name="decompression" version="0" />
			</rt_info>
			<input>
				<port id="0" precision="FP16">
					<dim>1</dim>
					<dim>256</dim>
				</port>
			</input>
			<output>
				<port id="1" precision="FP32" names="shadow/LSTMLayers/decoder/stack_bidirectional_rnn/cell_1/bidirectional_rnn/bw/bw/while/Enter_4:0">
					<dim>1</dim>
					<dim>256</dim>
				</port>
			</output>
		</layer>
		<layer id="306" name="Constant_1148" type="Const" version="opset1">
			<data element_type="i64" shape="1" offset="11098180" size="8" />
			<output>
				<port id="0" precision="I64">
					<dim>1</dim>
				</port>
			</output>
		</layer>
		<layer id="307" name="Constant_1147" type="Const" version="opset1">
			<data element_type="i64" shape="" offset="11098180" size="8" />
			<output>
				<port id="0" precision="I64" />
			</output>
		</layer>
		<layer id="308" name="Gather_1149" type="Gather" version="opset8">
			<data batch_dims="0" />
			<input>
				<port id="0" precision="I64">
					<dim>3</dim>
				</port>
				<port id="1" precision="I64">
					<dim>1</dim>
				</port>
				<port id="2" precision="I64" />
			</input>
			<output>
				<port id="3" precision="I64">
					<dim>1</dim>
				</port>
			</output>
		</layer>
		<layer id="309" name="Constant_1156" type="Const" version="opset1">
			<data element_type="i64" shape="1" offset="11098188" size="8" />
			<output>
				<port id="0" precision="I64">
					<dim>1</dim>
				</port>
			</output>
		</layer>
		<layer id="310" name="Concat_1157" type="Concat" version="opset1">
			<data axis="0" />
			<input>
				<port id="0" precision="I64">
					<dim>1</dim>
				</port>
				<port id="1" precision="I64">
					<dim>1</dim>
				</port>
			</input>
			<output>
				<port id="2" precision="I64">
					<dim>2</dim>
				</port>
			</output>
		</layer>
		<layer id="311" name="Broadcast_1158" type="Broadcast" version="opset3">
			<data mode="numpy" />
			<input>
				<port id="0" precision="FP32">
					<dim>1</dim>
					<dim>256</dim>
				</port>
				<port id="1" precision="I64">
					<dim>2</dim>
				</port>
			</input>
			<output>
				<port id="2" precision="FP32">
					<dim>1</dim>
					<dim>256</dim>
				</port>
			</output>
		</layer>
		<layer id="312" name="Constant_2784" type="Const" version="opset1">
			<data element_type="i64" shape="1" offset="11098196" size="8" />
			<output>
				<port id="0" precision="I64">
					<dim>1</dim>
				</port>
			</output>
		</layer>
		<layer id="313" name="Unsqueeze_2785" type="Unsqueeze" version="opset1">
			<input>
				<port id="0" precision="FP32">
					<dim>1</dim>
					<dim>256</dim>
				</port>
				<port id="1" precision="I64">
					<dim>1</dim>
				</port>
			</input>
			<output>
				<port id="2" precision="FP32">
					<dim>1</dim>
					<dim>1</dim>
					<dim>256</dim>
				</port>
			</output>
		</layer>
		<layer id="314" name="Constant_1161_compressed" type="Const" version="opset1">
			<data element_type="f16" shape="1, 256" offset="11097668" size="512" />
			<output>
				<port id="0" precision="FP16">
					<dim>1</dim>
					<dim>256</dim>
				</port>
			</output>
		</layer>
		<layer id="315" name="Constant_1161" type="Convert" version="opset1">
			<data destination_type="f32" />
			<rt_info>
				<attribute name="decompression" version="0" />
			</rt_info>
			<input>
				<port id="0" precision="FP16">
					<dim>1</dim>
					<dim>256</dim>
				</port>
			</input>
			<output>
				<port id="1" precision="FP32" names="shadow/LSTMLayers/decoder/stack_bidirectional_rnn/cell_1/bidirectional_rnn/bw/bw/while/Enter_3:0">
					<dim>1</dim>
					<dim>256</dim>
				</port>
			</output>
		</layer>
		<layer id="316" name="Constant_1167" type="Const" version="opset1">
			<data element_type="i64" shape="1" offset="11098188" size="8" />
			<output>
				<port id="0" precision="I64">
					<dim>1</dim>
				</port>
			</output>
		</layer>
		<layer id="317" name="Concat_1168" type="Concat" version="opset1">
			<data axis="0" />
			<input>
				<port id="0" precision="I64">
					<dim>1</dim>
				</port>
				<port id="1" precision="I64">
					<dim>1</dim>
				</port>
			</input>
			<output>
				<port id="2" precision="I64">
					<dim>2</dim>
				</port>
			</output>
		</layer>
		<layer id="318" name="Broadcast_1169" type="Broadcast" version="opset3">
			<data mode="numpy" />
			<input>
				<port id="0" precision="FP32">
					<dim>1</dim>
					<dim>256</dim>
				</port>
				<port id="1" precision="I64">
					<dim>2</dim>
				</port>
			</input>
			<output>
				<port id="2" precision="FP32">
					<dim>1</dim>
					<dim>256</dim>
				</port>
			</output>
		</layer>
		<layer id="319" name="Unsqueeze_2786" type="Unsqueeze" version="opset1">
			<input>
				<port id="0" precision="FP32">
					<dim>1</dim>
					<dim>256</dim>
				</port>
				<port id="1" precision="I64">
					<dim>1</dim>
				</port>
			</input>
			<output>
				<port id="2" precision="FP32">
					<dim>1</dim>
					<dim>1</dim>
					<dim>256</dim>
				</port>
			</output>
		</layer>
		<layer id="320" name="ShapeOf_2787" type="ShapeOf" version="opset3">
			<data output_type="i64" />
			<input>
				<port id="0" precision="FP32">
					<dim>1</dim>
					<dim>30</dim>
					<dim>512</dim>
				</port>
			</input>
			<output>
				<port id="1" precision="I64">
					<dim>3</dim>
				</port>
			</output>
		</layer>
		<layer id="321" name="Constant_2792" type="Const" version="opset1">
			<data element_type="i64" shape="1" offset="11098196" size="8" />
			<output>
				<port id="0" precision="I64">
					<dim>1</dim>
				</port>
			</output>
		</layer>
		<layer id="322" name="Constant_2791" type="Const" version="opset1">
			<data element_type="i64" shape="" offset="11098180" size="8" />
			<output>
				<port id="0" precision="I64" />
			</output>
		</layer>
		<layer id="323" name="Gather_2793" type="Gather" version="opset1">
			<input>
				<port id="0" precision="I64">
					<dim>3</dim>
				</port>
				<port id="1" precision="I64">
					<dim>1</dim>
				</port>
				<port id="2" precision="I64" />
			</input>
			<output>
				<port id="3" precision="I64">
					<dim>1</dim>
				</port>
			</output>
		</layer>
		<layer id="324" name="Constant_2789" type="Const" version="opset1">
			<data element_type="i64" shape="1" offset="11098180" size="8" />
			<output>
				<port id="0" precision="I64">
					<dim>1</dim>
				</port>
			</output>
		</layer>
		<layer id="325" name="Constant_2788" type="Const" version="opset1">
			<data element_type="i64" shape="" offset="11098180" size="8" />
			<output>
				<port id="0" precision="I64" />
			</output>
		</layer>
		<layer id="326" name="Gather_2790" type="Gather" version="opset1">
			<input>
				<port id="0" precision="I64">
					<dim>3</dim>
				</port>
				<port id="1" precision="I64">
					<dim>1</dim>
				</port>
				<port id="2" precision="I64" />
			</input>
			<output>
				<port id="3" precision="I64">
					<dim>1</dim>
				</port>
			</output>
		</layer>
		<layer id="327" name="Broadcast_2794" type="Broadcast" version="opset3">
			<data mode="numpy" />
			<input>
				<port id="0" precision="I64">
					<dim>1</dim>
				</port>
				<port id="1" precision="I64">
					<dim>1</dim>
				</port>
			</input>
			<output>
				<port id="2" precision="I64">
					<dim>1</dim>
				</port>
			</output>
		</layer>
		<layer id="328" name="Constant_2803_compressed" type="Const" version="opset1">
			<data element_type="f16" shape="1, 1024, 512" offset="22122588" size="1048576" />
			<output>
				<port id="0" precision="FP16">
					<dim>1</dim>
					<dim>1024</dim>
					<dim>512</dim>
				</port>
			</output>
		</layer>
		<layer id="329" name="Constant_2803" type="Convert" version="opset1">
			<data destination_type="f32" />
			<rt_info>
				<attribute name="decompression" version="0" />
			</rt_info>
			<input>
				<port id="0" precision="FP16">
					<dim>1</dim>
					<dim>1024</dim>
					<dim>512</dim>
				</port>
			</input>
			<output>
				<port id="1" precision="FP32">
					<dim>1</dim>
					<dim>1024</dim>
					<dim>512</dim>
				</port>
			</output>
		</layer>
		<layer id="330" name="Constant_2805_compressed" type="Const" version="opset1">
			<data element_type="f16" shape="1, 1024, 256" offset="23171164" size="524288" />
			<output>
				<port id="0" precision="FP16">
					<dim>1</dim>
					<dim>1024</dim>
					<dim>256</dim>
				</port>
			</output>
		</layer>
		<layer id="331" name="Constant_2805" type="Convert" version="opset1">
			<data destination_type="f32" />
			<rt_info>
				<attribute name="decompression" version="0" />
			</rt_info>
			<input>
				<port id="0" precision="FP16">
					<dim>1</dim>
					<dim>1024</dim>
					<dim>256</dim>
				</port>
			</input>
			<output>
				<port id="1" precision="FP32">
					<dim>1</dim>
					<dim>1024</dim>
					<dim>256</dim>
				</port>
			</output>
		</layer>
		<layer id="332" name="Constant_2807_compressed" type="Const" version="opset1">
			<data element_type="f16" shape="1, 1024" offset="23695452" size="2048" />
			<output>
				<port id="0" precision="FP16">
					<dim>1</dim>
					<dim>1024</dim>
				</port>
			</output>
		</layer>
		<layer id="333" name="Constant_2807" type="Convert" version="opset1">
			<data destination_type="f32" />
			<rt_info>
				<attribute name="decompression" version="0" />
			</rt_info>
			<input>
				<port id="0" precision="FP16">
					<dim>1</dim>
					<dim>1024</dim>
				</port>
			</input>
			<output>
				<port id="1" precision="FP32">
					<dim>1</dim>
					<dim>1024</dim>
				</port>
			</output>
		</layer>
		<layer id="334" name="LSTMSequence_2808" type="LSTMSequence" version="opset5">
			<data direction="reverse" hidden_size="256" activations="sigmoid, tanh, tanh" activations_alpha="" activations_beta="" clip="0" />
			<input>
				<port id="0" precision="FP32">
					<dim>1</dim>
					<dim>30</dim>
					<dim>512</dim>
				</port>
				<port id="1" precision="FP32">
					<dim>1</dim>
					<dim>1</dim>
					<dim>256</dim>
				</port>
				<port id="2" precision="FP32">
					<dim>1</dim>
					<dim>1</dim>
					<dim>256</dim>
				</port>
				<port id="3" precision="I64">
					<dim>1</dim>
				</port>
				<port id="4" precision="FP32">
					<dim>1</dim>
					<dim>1024</dim>
					<dim>512</dim>
				</port>
				<port id="5" precision="FP32">
					<dim>1</dim>
					<dim>1024</dim>
					<dim>256</dim>
				</port>
				<port id="6" precision="FP32">
					<dim>1</dim>
					<dim>1024</dim>
				</port>
			</input>
			<output>
				<port id="7" precision="FP32">
					<dim>1</dim>
					<dim>1</dim>
					<dim>30</dim>
					<dim>256</dim>
				</port>
				<port id="8" precision="FP32">
					<dim>1</dim>
					<dim>1</dim>
					<dim>256</dim>
				</port>
				<port id="9" precision="FP32">
					<dim>1</dim>
					<dim>1</dim>
					<dim>256</dim>
				</port>
			</output>
		</layer>
		<layer id="335" name="Constant_2809" type="Const" version="opset1">
			<data element_type="i64" shape="1" offset="11098196" size="8" />
			<output>
				<port id="0" precision="I64">
					<dim>1</dim>
				</port>
			</output>
		</layer>
		<layer id="336" name="shadow/LSTMLayers/decoder/stack_bidirectional_rnn/cell_1/bidirectional_rnn/bw/bw/while/LoopCond/TensorIteratorCondition_/TensorIterator.0" type="Squeeze" version="opset1">
			<input>
				<port id="0" precision="FP32">
					<dim>1</dim>
					<dim>1</dim>
					<dim>30</dim>
					<dim>256</dim>
				</port>
				<port id="1" precision="I64">
					<dim>1</dim>
				</port>
			</input>
			<output>
				<port id="2" precision="FP32" names="shadow/LSTMLayers/decoder/stack_bidirectional_rnn/cell_1/ReverseV2:0,shadow/LSTMLayers/decoder/stack_bidirectional_rnn/cell_1/bidirectional_rnn/bw/bw/TensorArrayStack/TensorArrayGatherV3:0,shadow/LSTMLayers/decoder/stack_bidirectional_rnn/cell_1/bidirectional_rnn/bw/bw/transpose_1:0">
					<dim>1</dim>
					<dim>30</dim>
					<dim>256</dim>
				</port>
			</output>
		</layer>
		<layer id="337" name="shadow/LSTMLayers/decoder/stack_bidirectional_rnn/cell_1/concat" type="Concat" version="opset1">
			<data axis="2" />
			<input>
				<port id="0" precision="FP32">
					<dim>1</dim>
					<dim>30</dim>
					<dim>256</dim>
				</port>
				<port id="1" precision="FP32">
					<dim>1</dim>
					<dim>30</dim>
					<dim>256</dim>
				</port>
			</input>
			<output>
				<port id="2" precision="FP32" names="shadow/LSTMLayers/decoder/stack_bidirectional_rnn/cell_1/concat:0">
					<dim>1</dim>
					<dim>30</dim>
					<dim>512</dim>
				</port>
			</output>
		</layer>
		<layer id="338" name="Constant_1208" type="Const" version="opset1">
			<data element_type="i64" shape="3" offset="23697500" size="24" />
			<output>
				<port id="0" precision="I64">
					<dim>3</dim>
				</port>
			</output>
		</layer>
		<layer id="339" name="shadow/LSTMLayers/Reshape" type="Reshape" version="opset1">
			<data special_zero="true" />
			<input>
				<port id="0" precision="FP32">
					<dim>1</dim>
					<dim>30</dim>
					<dim>512</dim>
				</port>
				<port id="1" precision="I64">
					<dim>3</dim>
				</port>
			</input>
			<output>
				<port id="2" precision="FP32" names="shadow/LSTMLayers/Reshape:0">
					<dim>1</dim>
					<dim>30</dim>
					<dim>512</dim>
				</port>
			</output>
		</layer>
		<layer id="340" name="shadow/LSTMLayers/fully_connected/weights/read_compressed" type="Const" version="opset1">
			<data element_type="f16" shape="37, 512" offset="23697524" size="37888" />
			<output>
				<port id="0" precision="FP16">
					<dim>37</dim>
					<dim>512</dim>
				</port>
			</output>
		</layer>
		<layer id="341" name="shadow/LSTMLayers/fully_connected/weights/read" type="Convert" version="opset1">
			<data destination_type="f32" />
			<rt_info>
				<attribute name="decompression" version="0" />
			</rt_info>
			<input>
				<port id="0" precision="FP16">
					<dim>37</dim>
					<dim>512</dim>
				</port>
			</input>
			<output>
				<port id="1" precision="FP32" names="shadow/LSTMLayers/fully_connected/weights/read:0">
					<dim>37</dim>
					<dim>512</dim>
				</port>
			</output>
		</layer>
		<layer id="342" name="shadow/LSTMLayers/fully_connected/MatMul" type="MatMul" version="opset1">
			<data transpose_a="false" transpose_b="true" />
			<input>
				<port id="0" precision="FP32">
					<dim>1</dim>
					<dim>30</dim>
					<dim>512</dim>
				</port>
				<port id="1" precision="FP32">
					<dim>37</dim>
					<dim>512</dim>
				</port>
			</input>
			<output>
				<port id="2" precision="FP32" names="shadow/LSTMLayers/fully_connected/MatMul:0">
					<dim>1</dim>
					<dim>30</dim>
					<dim>37</dim>
				</port>
			</output>
		</layer>
		<layer id="343" name="Constant_2871_compressed" type="Const" version="opset1">
			<data element_type="f16" shape="1, 1, 37" offset="23735412" size="74" />
			<output>
				<port id="0" precision="FP16">
					<dim>1</dim>
					<dim>1</dim>
					<dim>37</dim>
				</port>
			</output>
		</layer>
		<layer id="344" name="Constant_2871" type="Convert" version="opset1">
			<data destination_type="f32" />
			<rt_info>
				<attribute name="decompression" version="0" />
			</rt_info>
			<input>
				<port id="0" precision="FP16">
					<dim>1</dim>
					<dim>1</dim>
					<dim>37</dim>
				</port>
			</input>
			<output>
				<port id="1" precision="FP32">
					<dim>1</dim>
					<dim>1</dim>
					<dim>37</dim>
				</port>
			</output>
		</layer>
		<layer id="345" name="shadow/LSTMLayers/fully_connected/BiasAdd/Add" type="Add" version="opset1">
			<data auto_broadcast="numpy" />
			<input>
				<port id="0" precision="FP32">
					<dim>1</dim>
					<dim>30</dim>
					<dim>37</dim>
				</port>
				<port id="1" precision="FP32">
					<dim>1</dim>
					<dim>1</dim>
					<dim>37</dim>
				</port>
			</input>
			<output>
				<port id="2" precision="FP32" names="shadow/LSTMLayers/fully_connected/BiasAdd:0">
					<dim>1</dim>
					<dim>30</dim>
					<dim>37</dim>
				</port>
			</output>
		</layer>
		<layer id="346" name="Constant_1209" type="Const" version="opset1">
			<data element_type="i64" shape="3" offset="23735486" size="24" />
			<output>
				<port id="0" precision="I64">
					<dim>3</dim>
				</port>
			</output>
		</layer>
		<layer id="347" name="shadow/LSTMLayers/Reshape_1" type="Reshape" version="opset1">
			<data special_zero="true" />
			<input>
				<port id="0" precision="FP32">
					<dim>1</dim>
					<dim>30</dim>
					<dim>37</dim>
				</port>
				<port id="1" precision="I64">
					<dim>3</dim>
				</port>
			</input>
			<output>
				<port id="2" precision="FP32" names="shadow/LSTMLayers/Reshape_1:0">
					<dim>1</dim>
					<dim>30</dim>
					<dim>37</dim>
				</port>
			</output>
		</layer>
		<layer id="348" name="shadow/LSTMLayers/transpose_time_major/perm" type="Const" version="opset1">
			<data element_type="i64" shape="3" offset="23735510" size="24" />
			<output>
				<port id="0" precision="I64" names="shadow/LSTMLayers/transpose_time_major/perm:0">
					<dim>3</dim>
				</port>
			</output>
		</layer>
		<layer id="349" name="shadow/LSTMLayers/transpose_time_major" type="Transpose" version="opset1">
			<input>
				<port id="0" precision="FP32">
					<dim>1</dim>
					<dim>30</dim>
					<dim>37</dim>
				</port>
				<port id="1" precision="I64">
					<dim>3</dim>
				</port>
			</input>
			<output>
				<port id="2" precision="FP32" names="shadow/LSTMLayers/transpose_time_major,shadow/LSTMLayers/transpose_time_major:0">
					<dim>30</dim>
					<dim>1</dim>
					<dim>37</dim>
				</port>
			</output>
		</layer>
		<layer id="350" name="shadow/LSTMLayers/transpose_time_major:0" type="Result" version="opset1">
			<input>
				<port id="0" precision="FP32">
					<dim>30</dim>
					<dim>1</dim>
					<dim>37</dim>
				</port>
			</input>
		</layer>
	</layers>
	<edges>
		<edge from-layer="0" from-port="0" to-layer="2" to-port="0" />
		<edge from-layer="1" from-port="0" to-layer="2" to-port="1" />
		<edge from-layer="2" from-port="2" to-layer="5" to-port="0" />
		<edge from-layer="3" from-port="0" to-layer="4" to-port="0" />
		<edge from-layer="4" from-port="1" to-layer="5" to-port="1" />
		<edge from-layer="5" from-port="2" to-layer="8" to-port="0" />
		<edge from-layer="6" from-port="0" to-layer="7" to-port="0" />
		<edge from-layer="7" from-port="1" to-layer="8" to-port="1" />
		<edge from-layer="8" from-port="2" to-layer="11" to-port="0" />
		<edge from-layer="9" from-port="0" to-layer="10" to-port="0" />
		<edge from-layer="10" from-port="1" to-layer="11" to-port="1" />
		<edge from-layer="11" from-port="2" to-layer="14" to-port="0" />
		<edge from-layer="12" from-port="0" to-layer="13" to-port="0" />
		<edge from-layer="13" from-port="1" to-layer="14" to-port="1" />
		<edge from-layer="14" from-port="2" to-layer="15" to-port="0" />
		<edge from-layer="15" from-port="1" to-layer="16" to-port="0" />
		<edge from-layer="16" from-port="1" to-layer="19" to-port="0" />
		<edge from-layer="17" from-port="0" to-layer="18" to-port="0" />
		<edge from-layer="18" from-port="1" to-layer="19" to-port="1" />
		<edge from-layer="19" from-port="2" to-layer="22" to-port="0" />
		<edge from-layer="20" from-port="0" to-layer="21" to-port="0" />
		<edge from-layer="21" from-port="1" to-layer="22" to-port="1" />
		<edge from-layer="22" from-port="2" to-layer="23" to-port="0" />
		<edge from-layer="23" from-port="1" to-layer="24" to-port="0" />
		<edge from-layer="24" from-port="1" to-layer="27" to-port="0" />
		<edge from-layer="25" from-port="0" to-layer="26" to-port="0" />
		<edge from-layer="26" from-port="1" to-layer="27" to-port="1" />
		<edge from-layer="27" from-port="2" to-layer="30" to-port="0" />
		<edge from-layer="28" from-port="0" to-layer="29" to-port="0" />
		<edge from-layer="29" from-port="1" to-layer="30" to-port="1" />
		<edge from-layer="30" from-port="2" to-layer="31" to-port="0" />
		<edge from-layer="31" from-port="1" to-layer="34" to-port="0" />
		<edge from-layer="32" from-port="0" to-layer="33" to-port="0" />
		<edge from-layer="33" from-port="1" to-layer="34" to-port="1" />
		<edge from-layer="34" from-port="2" to-layer="37" to-port="0" />
		<edge from-layer="35" from-port="0" to-layer="36" to-port="0" />
		<edge from-layer="36" from-port="1" to-layer="37" to-port="1" />
		<edge from-layer="37" from-port="2" to-layer="38" to-port="0" />
		<edge from-layer="38" from-port="1" to-layer="39" to-port="0" />
		<edge from-layer="39" from-port="1" to-layer="42" to-port="0" />
		<edge from-layer="40" from-port="0" to-layer="41" to-port="0" />
		<edge from-layer="41" from-port="1" to-layer="42" to-port="1" />
		<edge from-layer="42" from-port="2" to-layer="45" to-port="0" />
		<edge from-layer="43" from-port="0" to-layer="44" to-port="0" />
		<edge from-layer="44" from-port="1" to-layer="45" to-port="1" />
		<edge from-layer="45" from-port="2" to-layer="46" to-port="0" />
		<edge from-layer="46" from-port="1" to-layer="49" to-port="0" />
		<edge from-layer="47" from-port="0" to-layer="48" to-port="0" />
		<edge from-layer="48" from-port="1" to-layer="49" to-port="1" />
		<edge from-layer="49" from-port="2" to-layer="52" to-port="0" />
		<edge from-layer="50" from-port="0" to-layer="51" to-port="0" />
		<edge from-layer="51" from-port="1" to-layer="52" to-port="1" />
		<edge from-layer="52" from-port="2" to-layer="53" to-port="0" />
		<edge from-layer="53" from-port="1" to-layer="54" to-port="0" />
		<edge from-layer="54" from-port="1" to-layer="57" to-port="0" />
		<edge from-layer="55" from-port="0" to-layer="56" to-port="0" />
		<edge from-layer="56" from-port="1" to-layer="57" to-port="1" />
		<edge from-layer="57" from-port="2" to-layer="60" to-port="0" />
		<edge from-layer="58" from-port="0" to-layer="59" to-port="0" />
		<edge from-layer="59" from-port="1" to-layer="60" to-port="1" />
		<edge from-layer="60" from-port="2" to-layer="61" to-port="0" />
		<edge from-layer="61" from-port="1" to-layer="63" to-port="0" />
		<edge from-layer="62" from-port="0" to-layer="63" to-port="1" />
		<edge from-layer="63" from-port="2" to-layer="65" to-port="0" />
		<edge from-layer="64" from-port="0" to-layer="65" to-port="1" />
		<edge from-layer="65" from-port="2" to-layer="68" to-port="0" />
		<edge from-layer="65" from-port="2" to-layer="116" to-port="0" />
		<edge from-layer="65" from-port="2" to-layer="130" to-port="0" />
		<edge from-layer="65" from-port="2" to-layer="97" to-port="0" />
		<edge from-layer="65" from-port="2" to-layer="83" to-port="0" />
		<edge from-layer="66" from-port="0" to-layer="67" to-port="0" />
		<edge from-layer="67" from-port="1" to-layer="74" to-port="0" />
		<edge from-layer="68" from-port="1" to-layer="104" to-port="0" />
		<edge from-layer="68" from-port="1" to-layer="71" to-port="0" />
		<edge from-layer="69" from-port="0" to-layer="71" to-port="1" />
		<edge from-layer="70" from-port="0" to-layer="71" to-port="2" />
		<edge from-layer="71" from-port="3" to-layer="80" to-port="0" />
		<edge from-layer="71" from-port="3" to-layer="73" to-port="0" />
		<edge from-layer="72" from-port="0" to-layer="73" to-port="1" />
		<edge from-layer="73" from-port="2" to-layer="74" to-port="1" />
		<edge from-layer="74" from-port="2" to-layer="76" to-port="0" />
		<edge from-layer="75" from-port="0" to-layer="82" to-port="1" />
		<edge from-layer="75" from-port="0" to-layer="76" to-port="1" />
		<edge from-layer="76" from-port="2" to-layer="97" to-port="1" />
		<edge from-layer="77" from-port="0" to-layer="78" to-port="0" />
		<edge from-layer="78" from-port="1" to-layer="81" to-port="0" />
		<edge from-layer="79" from-port="0" to-layer="80" to-port="1" />
		<edge from-layer="80" from-port="2" to-layer="81" to-port="1" />
		<edge from-layer="81" from-port="2" to-layer="82" to-port="0" />
		<edge from-layer="82" from-port="2" to-layer="97" to-port="2" />
		<edge from-layer="83" from-port="1" to-layer="86" to-port="0" />
		<edge from-layer="83" from-port="1" to-layer="89" to-port="0" />
		<edge from-layer="84" from-port="0" to-layer="86" to-port="1" />
		<edge from-layer="85" from-port="0" to-layer="86" to-port="2" />
		<edge from-layer="86" from-port="3" to-layer="90" to-port="0" />
		<edge from-layer="87" from-port="0" to-layer="89" to-port="1" />
		<edge from-layer="88" from-port="0" to-layer="89" to-port="2" />
		<edge from-layer="89" from-port="3" to-layer="90" to-port="1" />
		<edge from-layer="90" from-port="2" to-layer="97" to-port="3" />
		<edge from-layer="91" from-port="0" to-layer="92" to-port="0" />
		<edge from-layer="92" from-port="1" to-layer="97" to-port="4" />
		<edge from-layer="93" from-port="0" to-layer="94" to-port="0" />
		<edge from-layer="94" from-port="1" to-layer="97" to-port="5" />
		<edge from-layer="95" from-port="0" to-layer="96" to-port="0" />
		<edge from-layer="96" from-port="1" to-layer="97" to-port="6" />
		<edge from-layer="97" from-port="7" to-layer="99" to-port="0" />
		<edge from-layer="98" from-port="0" to-layer="99" to-port="1" />
		<edge from-layer="99" from-port="2" to-layer="133" to-port="0" />
		<edge from-layer="100" from-port="0" to-layer="101" to-port="0" />
		<edge from-layer="101" from-port="1" to-layer="107" to-port="0" />
		<edge from-layer="102" from-port="0" to-layer="104" to-port="1" />
		<edge from-layer="103" from-port="0" to-layer="104" to-port="2" />
		<edge from-layer="104" from-port="3" to-layer="106" to-port="0" />
		<edge from-layer="104" from-port="3" to-layer="113" to-port="0" />
		<edge from-layer="105" from-port="0" to-layer="106" to-port="1" />
		<edge from-layer="106" from-port="2" to-layer="107" to-port="1" />
		<edge from-layer="107" from-port="2" to-layer="109" to-port="0" />
		<edge from-layer="108" from-port="0" to-layer="115" to-port="1" />
		<edge from-layer="108" from-port="0" to-layer="109" to-port="1" />
		<edge from-layer="109" from-port="2" to-layer="130" to-port="1" />
		<edge from-layer="110" from-port="0" to-layer="111" to-port="0" />
		<edge from-layer="111" from-port="1" to-layer="114" to-port="0" />
		<edge from-layer="112" from-port="0" to-layer="113" to-port="1" />
		<edge from-layer="113" from-port="2" to-layer="114" to-port="1" />
		<edge from-layer="114" from-port="2" to-layer="115" to-port="0" />
		<edge from-layer="115" from-port="2" to-layer="130" to-port="2" />
		<edge from-layer="116" from-port="1" to-layer="119" to-port="0" />
		<edge from-layer="116" from-port="1" to-layer="122" to-port="0" />
		<edge from-layer="117" from-port="0" to-layer="119" to-port="1" />
		<edge from-layer="118" from-port="0" to-layer="119" to-port="2" />
		<edge from-layer="119" from-port="3" to-layer="123" to-port="0" />
		<edge from-layer="120" from-port="0" to-layer="122" to-port="1" />
		<edge from-layer="121" from-port="0" to-layer="122" to-port="2" />
		<edge from-layer="122" from-port="3" to-layer="123" to-port="1" />
		<edge from-layer="123" from-port="2" to-layer="130" to-port="3" />
		<edge from-layer="124" from-port="0" to-layer="125" to-port="0" />
		<edge from-layer="125" from-port="1" to-layer="130" to-port="4" />
		<edge from-layer="126" from-port="0" to-layer="127" to-port="0" />
		<edge from-layer="127" from-port="1" to-layer="130" to-port="5" />
		<edge from-layer="128" from-port="0" to-layer="129" to-port="0" />
		<edge from-layer="129" from-port="1" to-layer="130" to-port="6" />
		<edge from-layer="130" from-port="7" to-layer="132" to-port="0" />
		<edge from-layer="131" from-port="0" to-layer="132" to-port="1" />
		<edge from-layer="132" from-port="2" to-layer="133" to-port="1" />
		<edge from-layer="133" from-port="2" to-layer="198" to-port="0" />
		<edge from-layer="133" from-port="2" to-layer="184" to-port="0" />
		<edge from-layer="133" from-port="2" to-layer="165" to-port="0" />
		<edge from-layer="133" from-port="2" to-layer="151" to-port="0" />
		<edge from-layer="133" from-port="2" to-layer="136" to-port="0" />
		<edge from-layer="134" from-port="0" to-layer="135" to-port="0" />
		<edge from-layer="135" from-port="1" to-layer="142" to-port="0" />
		<edge from-layer="136" from-port="1" to-layer="172" to-port="0" />
		<edge from-layer="136" from-port="1" to-layer="139" to-port="0" />
		<edge from-layer="137" from-port="0" to-layer="139" to-port="1" />
		<edge from-layer="138" from-port="0" to-layer="139" to-port="2" />
		<edge from-layer="139" from-port="3" to-layer="141" to-port="0" />
		<edge from-layer="139" from-port="3" to-layer="148" to-port="0" />
		<edge from-layer="140" from-port="0" to-layer="141" to-port="1" />
		<edge from-layer="141" from-port="2" to-layer="142" to-port="1" />
		<edge from-layer="142" from-port="2" to-layer="144" to-port="0" />
		<edge from-layer="143" from-port="0" to-layer="150" to-port="1" />
		<edge from-layer="143" from-port="0" to-layer="144" to-port="1" />
		<edge from-layer="144" from-port="2" to-layer="165" to-port="1" />
		<edge from-layer="145" from-port="0" to-layer="146" to-port="0" />
		<edge from-layer="146" from-port="1" to-layer="149" to-port="0" />
		<edge from-layer="147" from-port="0" to-layer="148" to-port="1" />
		<edge from-layer="148" from-port="2" to-layer="149" to-port="1" />
		<edge from-layer="149" from-port="2" to-layer="150" to-port="0" />
		<edge from-layer="150" from-port="2" to-layer="165" to-port="2" />
		<edge from-layer="151" from-port="1" to-layer="154" to-port="0" />
		<edge from-layer="151" from-port="1" to-layer="157" to-port="0" />
		<edge from-layer="152" from-port="0" to-layer="154" to-port="1" />
		<edge from-layer="153" from-port="0" to-layer="154" to-port="2" />
		<edge from-layer="154" from-port="3" to-layer="158" to-port="0" />
		<edge from-layer="155" from-port="0" to-layer="157" to-port="1" />
		<edge from-layer="156" from-port="0" to-layer="157" to-port="2" />
		<edge from-layer="157" from-port="3" to-layer="158" to-port="1" />
		<edge from-layer="158" from-port="2" to-layer="165" to-port="3" />
		<edge from-layer="159" from-port="0" to-layer="160" to-port="0" />
		<edge from-layer="160" from-port="1" to-layer="165" to-port="4" />
		<edge from-layer="161" from-port="0" to-layer="162" to-port="0" />
		<edge from-layer="162" from-port="1" to-layer="165" to-port="5" />
		<edge from-layer="163" from-port="0" to-layer="164" to-port="0" />
		<edge from-layer="164" from-port="1" to-layer="165" to-port="6" />
		<edge from-layer="165" from-port="7" to-layer="167" to-port="0" />
		<edge from-layer="166" from-port="0" to-layer="167" to-port="1" />
		<edge from-layer="167" from-port="2" to-layer="201" to-port="0" />
		<edge from-layer="168" from-port="0" to-layer="169" to-port="0" />
		<edge from-layer="169" from-port="1" to-layer="175" to-port="0" />
		<edge from-layer="170" from-port="0" to-layer="172" to-port="1" />
		<edge from-layer="171" from-port="0" to-layer="172" to-port="2" />
		<edge from-layer="172" from-port="3" to-layer="181" to-port="0" />
		<edge from-layer="172" from-port="3" to-layer="174" to-port="0" />
		<edge from-layer="173" from-port="0" to-layer="174" to-port="1" />
		<edge from-layer="174" from-port="2" to-layer="175" to-port="1" />
		<edge from-layer="175" from-port="2" to-layer="177" to-port="0" />
		<edge from-layer="176" from-port="0" to-layer="177" to-port="1" />
		<edge from-layer="176" from-port="0" to-layer="183" to-port="1" />
		<edge from-layer="177" from-port="2" to-layer="198" to-port="1" />
		<edge from-layer="178" from-port="0" to-layer="179" to-port="0" />
		<edge from-layer="179" from-port="1" to-layer="182" to-port="0" />
		<edge from-layer="180" from-port="0" to-layer="181" to-port="1" />
		<edge from-layer="181" from-port="2" to-layer="182" to-port="1" />
		<edge from-layer="182" from-port="2" to-layer="183" to-port="0" />
		<edge from-layer="183" from-port="2" to-layer="198" to-port="2" />
		<edge from-layer="184" from-port="1" to-layer="190" to-port="0" />
		<edge from-layer="184" from-port="1" to-layer="187" to-port="0" />
		<edge from-layer="185" from-port="0" to-layer="187" to-port="1" />
		<edge from-layer="186" from-port="0" to-layer="187" to-port="2" />
		<edge from-layer="187" from-port="3" to-layer="191" to-port="0" />
		<edge from-layer="188" from-port="0" to-layer="190" to-port="1" />
		<edge from-layer="189" from-port="0" to-layer="190" to-port="2" />
		<edge from-layer="190" from-port="3" to-layer="191" to-port="1" />
		<edge from-layer="191" from-port="2" to-layer="198" to-port="3" />
		<edge from-layer="192" from-port="0" to-layer="193" to-port="0" />
		<edge from-layer="193" from-port="1" to-layer="198" to-port="4" />
		<edge from-layer="194" from-port="0" to-layer="195" to-port="0" />
		<edge from-layer="195" from-port="1" to-layer="198" to-port="5" />
		<edge from-layer="196" from-port="0" to-layer="197" to-port="0" />
		<edge from-layer="197" from-port="1" to-layer="198" to-port="6" />
		<edge from-layer="198" from-port="7" to-layer="200" to-port="0" />
		<edge from-layer="199" from-port="0" to-layer="200" to-port="1" />
		<edge from-layer="200" from-port="2" to-layer="201" to-port="1" />
		<edge from-layer="201" from-port="2" to-layer="204" to-port="0" />
		<edge from-layer="201" from-port="2" to-layer="252" to-port="0" />
		<edge from-layer="201" from-port="2" to-layer="233" to-port="0" />
		<edge from-layer="201" from-port="2" to-layer="266" to-port="0" />
		<edge from-layer="201" from-port="2" to-layer="219" to-port="0" />
		<edge from-layer="202" from-port="0" to-layer="203" to-port="0" />
		<edge from-layer="203" from-port="1" to-layer="210" to-port="0" />
		<edge from-layer="204" from-port="1" to-layer="240" to-port="0" />
		<edge from-layer="204" from-port="1" to-layer="207" to-port="0" />
		<edge from-layer="205" from-port="0" to-layer="207" to-port="1" />
		<edge from-layer="206" from-port="0" to-layer="207" to-port="2" />
		<edge from-layer="207" from-port="3" to-layer="209" to-port="0" />
		<edge from-layer="207" from-port="3" to-layer="216" to-port="0" />
		<edge from-layer="208" from-port="0" to-layer="209" to-port="1" />
		<edge from-layer="209" from-port="2" to-layer="210" to-port="1" />
		<edge from-layer="210" from-port="2" to-layer="212" to-port="0" />
		<edge from-layer="211" from-port="0" to-layer="218" to-port="1" />
		<edge from-layer="211" from-port="0" to-layer="212" to-port="1" />
		<edge from-layer="212" from-port="2" to-layer="233" to-port="1" />
		<edge from-layer="213" from-port="0" to-layer="214" to-port="0" />
		<edge from-layer="214" from-port="1" to-layer="217" to-port="0" />
		<edge from-layer="215" from-port="0" to-layer="216" to-port="1" />
		<edge from-layer="216" from-port="2" to-layer="217" to-port="1" />
		<edge from-layer="217" from-port="2" to-layer="218" to-port="0" />
		<edge from-layer="218" from-port="2" to-layer="233" to-port="2" />
		<edge from-layer="219" from-port="1" to-layer="225" to-port="0" />
		<edge from-layer="219" from-port="1" to-layer="222" to-port="0" />
		<edge from-layer="220" from-port="0" to-layer="222" to-port="1" />
		<edge from-layer="221" from-port="0" to-layer="222" to-port="2" />
		<edge from-layer="222" from-port="3" to-layer="226" to-port="0" />
		<edge from-layer="223" from-port="0" to-layer="225" to-port="1" />
		<edge from-layer="224" from-port="0" to-layer="225" to-port="2" />
		<edge from-layer="225" from-port="3" to-layer="226" to-port="1" />
		<edge from-layer="226" from-port="2" to-layer="233" to-port="3" />
		<edge from-layer="227" from-port="0" to-layer="228" to-port="0" />
		<edge from-layer="228" from-port="1" to-layer="233" to-port="4" />
		<edge from-layer="229" from-port="0" to-layer="230" to-port="0" />
		<edge from-layer="230" from-port="1" to-layer="233" to-port="5" />
		<edge from-layer="231" from-port="0" to-layer="232" to-port="0" />
		<edge from-layer="232" from-port="1" to-layer="233" to-port="6" />
		<edge from-layer="233" from-port="7" to-layer="235" to-port="0" />
		<edge from-layer="234" from-port="0" to-layer="235" to-port="1" />
		<edge from-layer="235" from-port="2" to-layer="269" to-port="0" />
		<edge from-layer="236" from-port="0" to-layer="237" to-port="0" />
		<edge from-layer="237" from-port="1" to-layer="243" to-port="0" />
		<edge from-layer="238" from-port="0" to-layer="240" to-port="1" />
		<edge from-layer="239" from-port="0" to-layer="240" to-port="2" />
		<edge from-layer="240" from-port="3" to-layer="242" to-port="0" />
		<edge from-layer="240" from-port="3" to-layer="249" to-port="0" />
		<edge from-layer="241" from-port="0" to-layer="242" to-port="1" />
		<edge from-layer="242" from-port="2" to-layer="243" to-port="1" />
		<edge from-layer="243" from-port="2" to-layer="245" to-port="0" />
		<edge from-layer="244" from-port="0" to-layer="251" to-port="1" />
		<edge from-layer="244" from-port="0" to-layer="245" to-port="1" />
		<edge from-layer="245" from-port="2" to-layer="266" to-port="1" />
		<edge from-layer="246" from-port="0" to-layer="247" to-port="0" />
		<edge from-layer="247" from-port="1" to-layer="250" to-port="0" />
		<edge from-layer="248" from-port="0" to-layer="249" to-port="1" />
		<edge from-layer="249" from-port="2" to-layer="250" to-port="1" />
		<edge from-layer="250" from-port="2" to-layer="251" to-port="0" />
		<edge from-layer="251" from-port="2" to-layer="266" to-port="2" />
		<edge from-layer="252" from-port="1" to-layer="258" to-port="0" />
		<edge from-layer="252" from-port="1" to-layer="255" to-port="0" />
		<edge from-layer="253" from-port="0" to-layer="255" to-port="1" />
		<edge from-layer="254" from-port="0" to-layer="255" to-port="2" />
		<edge from-layer="255" from-port="3" to-layer="259" to-port="0" />
		<edge from-layer="256" from-port="0" to-layer="258" to-port="1" />
		<edge from-layer="257" from-port="0" to-layer="258" to-port="2" />
		<edge from-layer="258" from-port="3" to-layer="259" to-port="1" />
		<edge from-layer="259" from-port="2" to-layer="266" to-port="3" />
		<edge from-layer="260" from-port="0" to-layer="261" to-port="0" />
		<edge from-layer="261" from-port="1" to-layer="266" to-port="4" />
		<edge from-layer="262" from-port="0" to-layer="263" to-port="0" />
		<edge from-layer="263" from-port="1" to-layer="266" to-port="5" />
		<edge from-layer="264" from-port="0" to-layer="265" to-port="0" />
		<edge from-layer="265" from-port="1" to-layer="266" to-port="6" />
		<edge from-layer="266" from-port="7" to-layer="268" to-port="0" />
		<edge from-layer="267" from-port="0" to-layer="268" to-port="1" />
		<edge from-layer="268" from-port="2" to-layer="269" to-port="1" />
		<edge from-layer="269" from-port="2" to-layer="272" to-port="0" />
		<edge from-layer="269" from-port="2" to-layer="301" to-port="0" />
		<edge from-layer="269" from-port="2" to-layer="334" to-port="0" />
		<edge from-layer="269" from-port="2" to-layer="320" to-port="0" />
		<edge from-layer="269" from-port="2" to-layer="287" to-port="0" />
		<edge from-layer="270" from-port="0" to-layer="271" to-port="0" />
		<edge from-layer="271" from-port="1" to-layer="278" to-port="0" />
		<edge from-layer="272" from-port="1" to-layer="308" to-port="0" />
		<edge from-layer="272" from-port="1" to-layer="275" to-port="0" />
		<edge from-layer="273" from-port="0" to-layer="275" to-port="1" />
		<edge from-layer="274" from-port="0" to-layer="275" to-port="2" />
		<edge from-layer="275" from-port="3" to-layer="284" to-port="0" />
		<edge from-layer="275" from-port="3" to-layer="277" to-port="0" />
		<edge from-layer="276" from-port="0" to-layer="277" to-port="1" />
		<edge from-layer="277" from-port="2" to-layer="278" to-port="1" />
		<edge from-layer="278" from-port="2" to-layer="280" to-port="0" />
		<edge from-layer="279" from-port="0" to-layer="286" to-port="1" />
		<edge from-layer="279" from-port="0" to-layer="280" to-port="1" />
		<edge from-layer="280" from-port="2" to-layer="301" to-port="1" />
		<edge from-layer="281" from-port="0" to-layer="282" to-port="0" />
		<edge from-layer="282" from-port="1" to-layer="285" to-port="0" />
		<edge from-layer="283" from-port="0" to-layer="284" to-port="1" />
		<edge from-layer="284" from-port="2" to-layer="285" to-port="1" />
		<edge from-layer="285" from-port="2" to-layer="286" to-port="0" />
		<edge from-layer="286" from-port="2" to-layer="301" to-port="2" />
		<edge from-layer="287" from-port="1" to-layer="293" to-port="0" />
		<edge from-layer="287" from-port="1" to-layer="290" to-port="0" />
		<edge from-layer="288" from-port="0" to-layer="290" to-port="1" />
		<edge from-layer="289" from-port="0" to-layer="290" to-port="2" />
		<edge from-layer="290" from-port="3" to-layer="294" to-port="0" />
		<edge from-layer="291" from-port="0" to-layer="293" to-port="1" />
		<edge from-layer="292" from-port="0" to-layer="293" to-port="2" />
		<edge from-layer="293" from-port="3" to-layer="294" to-port="1" />
		<edge from-layer="294" from-port="2" to-layer="301" to-port="3" />
		<edge from-layer="295" from-port="0" to-layer="296" to-port="0" />
		<edge from-layer="296" from-port="1" to-layer="301" to-port="4" />
		<edge from-layer="297" from-port="0" to-layer="298" to-port="0" />
		<edge from-layer="298" from-port="1" to-layer="301" to-port="5" />
		<edge from-layer="299" from-port="0" to-layer="300" to-port="0" />
		<edge from-layer="300" from-port="1" to-layer="301" to-port="6" />
		<edge from-layer="301" from-port="7" to-layer="303" to-port="0" />
		<edge from-layer="302" from-port="0" to-layer="303" to-port="1" />
		<edge from-layer="303" from-port="2" to-layer="337" to-port="0" />
		<edge from-layer="304" from-port="0" to-layer="305" to-port="0" />
		<edge from-layer="305" from-port="1" to-layer="311" to-port="0" />
		<edge from-layer="306" from-port="0" to-layer="308" to-port="1" />
		<edge from-layer="307" from-port="0" to-layer="308" to-port="2" />
		<edge from-layer="308" from-port="3" to-layer="310" to-port="0" />
		<edge from-layer="308" from-port="3" to-layer="317" to-port="0" />
		<edge from-layer="309" from-port="0" to-layer="310" to-port="1" />
		<edge from-layer="310" from-port="2" to-layer="311" to-port="1" />
		<edge from-layer="311" from-port="2" to-layer="313" to-port="0" />
		<edge from-layer="312" from-port="0" to-layer="313" to-port="1" />
		<edge from-layer="312" from-port="0" to-layer="319" to-port="1" />
		<edge from-layer="313" from-port="2" to-layer="334" to-port="1" />
		<edge from-layer="314" from-port="0" to-layer="315" to-port="0" />
		<edge from-layer="315" from-port="1" to-layer="318" to-port="0" />
		<edge from-layer="316" from-port="0" to-layer="317" to-port="1" />
		<edge from-layer="317" from-port="2" to-layer="318" to-port="1" />
		<edge from-layer="318" from-port="2" to-layer="319" to-port="0" />
		<edge from-layer="319" from-port="2" to-layer="334" to-port="2" />
		<edge from-layer="320" from-port="1" to-layer="323" to-port="0" />
		<edge from-layer="320" from-port="1" to-layer="326" to-port="0" />
		<edge from-layer="321" from-port="0" to-layer="323" to-port="1" />
		<edge from-layer="322" from-port="0" to-layer="323" to-port="2" />
		<edge from-layer="323" from-port="3" to-layer="327" to-port="0" />
		<edge from-layer="324" from-port="0" to-layer="326" to-port="1" />
		<edge from-layer="325" from-port="0" to-layer="326" to-port="2" />
		<edge from-layer="326" from-port="3" to-layer="327" to-port="1" />
		<edge from-layer="327" from-port="2" to-layer="334" to-port="3" />
		<edge from-layer="328" from-port="0" to-layer="329" to-port="0" />
		<edge from-layer="329" from-port="1" to-layer="334" to-port="4" />
		<edge from-layer="330" from-port="0" to-layer="331" to-port="0" />
		<edge from-layer="331" from-port="1" to-layer="334" to-port="5" />
		<edge from-layer="332" from-port="0" to-layer="333" to-port="0" />
		<edge from-layer="333" from-port="1" to-layer="334" to-port="6" />
		<edge from-layer="334" from-port="7" to-layer="336" to-port="0" />
		<edge from-layer="335" from-port="0" to-layer="336" to-port="1" />
		<edge from-layer="336" from-port="2" to-layer="337" to-port="1" />
		<edge from-layer="337" from-port="2" to-layer="339" to-port="0" />
		<edge from-layer="338" from-port="0" to-layer="339" to-port="1" />
		<edge from-layer="339" from-port="2" to-layer="342" to-port="0" />
		<edge from-layer="340" from-port="0" to-layer="341" to-port="0" />
		<edge from-layer="341" from-port="1" to-layer="342" to-port="1" />
		<edge from-layer="342" from-port="2" to-layer="345" to-port="0" />
		<edge from-layer="343" from-port="0" to-layer="344" to-port="0" />
		<edge from-layer="344" from-port="1" to-layer="345" to-port="1" />
		<edge from-layer="345" from-port="2" to-layer="347" to-port="0" />
		<edge from-layer="346" from-port="0" to-layer="347" to-port="1" />
		<edge from-layer="347" from-port="2" to-layer="349" to-port="0" />
		<edge from-layer="348" from-port="0" to-layer="349" to-port="1" />
		<edge from-layer="349" from-port="2" to-layer="350" to-port="0" />
	</edges>
	<rt_info>
		<MO_version value="custom_HEAD_f6ee6e92f846a8c665e4a7089c51481f9689a3b5" />
		<Runtime_version value="2023.0.0-10521-f6ee6e92f84-HEAD" />
		<conversion_parameters>
			<framework value="tf" />
			<input value="Placeholder" />
			<input_model value="DIR/graph.pb" />
			<input_shape value="[1,32,120,1]" />
			<layout value="Placeholder(nhwc)" />
			<model_name value="text-recognition-0012" />
			<output value="shadow/LSTMLayers/transpose_time_major" />
			<output_dir value="DIR" />
		</conversion_parameters>
		<legacy_frontend value="True" />
	</rt_info>
</net>
